__________________________________________________________________________________________________
Layer (type)                    Output Shape         Param #     Connected to                     
==================================================================================================
input_19 (InputLayer)           [(None, 256, 256, 3) 0                                            
__________________________________________________________________________________________________
conv2d_568 (Conv2D)             (None, 127, 127, 32) 864         input_19[0][0]                   
__________________________________________________________________________________________________
batch_normalization_562 (BatchN (None, 127, 127, 32) 96          conv2d_568[0][0]                 
__________________________________________________________________________________________________
activation_502 (Activation)     (None, 127, 127, 32) 0           batch_normalization_562[0][0]    
__________________________________________________________________________________________________
conv2d_569 (Conv2D)             (None, 125, 125, 32) 9216        activation_502[0][0]             
__________________________________________________________________________________________________
batch_normalization_563 (BatchN (None, 125, 125, 32) 96          conv2d_569[0][0]                 
__________________________________________________________________________________________________
activation_503 (Activation)     (None, 125, 125, 32) 0           batch_normalization_563[0][0]    
__________________________________________________________________________________________________
conv2d_570 (Conv2D)             (None, 125, 125, 64) 18432       activation_503[0][0]             
__________________________________________________________________________________________________
batch_normalization_564 (BatchN (None, 125, 125, 64) 192         conv2d_570[0][0]                 
__________________________________________________________________________________________________
activation_504 (Activation)     (None, 125, 125, 64) 0           batch_normalization_564[0][0]    
__________________________________________________________________________________________________
max_pooling2d_38 (MaxPooling2D) (None, 62, 62, 64)   0           activation_504[0][0]             
__________________________________________________________________________________________________
conv2d_571 (Conv2D)             (None, 62, 62, 80)   5120        max_pooling2d_38[0][0]           
__________________________________________________________________________________________________
batch_normalization_565 (BatchN (None, 62, 62, 80)   240         conv2d_571[0][0]                 
__________________________________________________________________________________________________
activation_505 (Activation)     (None, 62, 62, 80)   0           batch_normalization_565[0][0]    
__________________________________________________________________________________________________
conv2d_572 (Conv2D)             (None, 60, 60, 192)  138240      activation_505[0][0]             
__________________________________________________________________________________________________
batch_normalization_566 (BatchN (None, 60, 60, 192)  576         conv2d_572[0][0]                 
__________________________________________________________________________________________________
activation_506 (Activation)     (None, 60, 60, 192)  0           batch_normalization_566[0][0]    
__________________________________________________________________________________________________
max_pooling2d_39 (MaxPooling2D) (None, 29, 29, 192)  0           activation_506[0][0]             
__________________________________________________________________________________________________
conv2d_576 (Conv2D)             (None, 29, 29, 64)   12288       max_pooling2d_39[0][0]           
__________________________________________________________________________________________________
batch_normalization_570 (BatchN (None, 29, 29, 64)   192         conv2d_576[0][0]                 
__________________________________________________________________________________________________
activation_510 (Activation)     (None, 29, 29, 64)   0           batch_normalization_570[0][0]    
__________________________________________________________________________________________________
conv2d_574 (Conv2D)             (None, 29, 29, 48)   9216        max_pooling2d_39[0][0]           
__________________________________________________________________________________________________
conv2d_577 (Conv2D)             (None, 29, 29, 96)   55296       activation_510[0][0]             
__________________________________________________________________________________________________
batch_normalization_568 (BatchN (None, 29, 29, 48)   144         conv2d_574[0][0]                 
__________________________________________________________________________________________________
batch_normalization_571 (BatchN (None, 29, 29, 96)   288         conv2d_577[0][0]                 
__________________________________________________________________________________________________
activation_508 (Activation)     (None, 29, 29, 48)   0           batch_normalization_568[0][0]    
__________________________________________________________________________________________________
activation_511 (Activation)     (None, 29, 29, 96)   0           batch_normalization_571[0][0]    
__________________________________________________________________________________________________
average_pooling2d_14 (AveragePo (None, 29, 29, 192)  0           max_pooling2d_39[0][0]           
__________________________________________________________________________________________________
conv2d_573 (Conv2D)             (None, 29, 29, 96)   18432       max_pooling2d_39[0][0]           
__________________________________________________________________________________________________
conv2d_575 (Conv2D)             (None, 29, 29, 64)   76800       activation_508[0][0]             
__________________________________________________________________________________________________
conv2d_578 (Conv2D)             (None, 29, 29, 96)   82944       activation_511[0][0]             
__________________________________________________________________________________________________
conv2d_579 (Conv2D)             (None, 29, 29, 64)   12288       average_pooling2d_14[0][0]       
__________________________________________________________________________________________________
batch_normalization_567 (BatchN (None, 29, 29, 96)   288         conv2d_573[0][0]                 
__________________________________________________________________________________________________
batch_normalization_569 (BatchN (None, 29, 29, 64)   192         conv2d_575[0][0]                 
__________________________________________________________________________________________________
batch_normalization_572 (BatchN (None, 29, 29, 96)   288         conv2d_578[0][0]                 
__________________________________________________________________________________________________
batch_normalization_573 (BatchN (None, 29, 29, 64)   192         conv2d_579[0][0]                 
__________________________________________________________________________________________________
activation_507 (Activation)     (None, 29, 29, 96)   0           batch_normalization_567[0][0]    
__________________________________________________________________________________________________
activation_509 (Activation)     (None, 29, 29, 64)   0           batch_normalization_569[0][0]    
__________________________________________________________________________________________________
activation_512 (Activation)     (None, 29, 29, 96)   0           batch_normalization_572[0][0]    
__________________________________________________________________________________________________
activation_513 (Activation)     (None, 29, 29, 64)   0           batch_normalization_573[0][0]    
__________________________________________________________________________________________________
mixed_5b (Concatenate)          (None, 29, 29, 320)  0           activation_507[0][0]             
                                                                 activation_509[0][0]             
                                                                 activation_512[0][0]             
                                                                 activation_513[0][0]             
__________________________________________________________________________________________________
conv2d_583 (Conv2D)             (None, 29, 29, 32)   10240       mixed_5b[0][0]                   
__________________________________________________________________________________________________
batch_normalization_577 (BatchN (None, 29, 29, 32)   96          conv2d_583[0][0]                 
__________________________________________________________________________________________________
activation_517 (Activation)     (None, 29, 29, 32)   0           batch_normalization_577[0][0]    
__________________________________________________________________________________________________
conv2d_581 (Conv2D)             (None, 29, 29, 32)   10240       mixed_5b[0][0]                   
__________________________________________________________________________________________________
conv2d_584 (Conv2D)             (None, 29, 29, 48)   13824       activation_517[0][0]             
__________________________________________________________________________________________________
batch_normalization_575 (BatchN (None, 29, 29, 32)   96          conv2d_581[0][0]                 
__________________________________________________________________________________________________
batch_normalization_578 (BatchN (None, 29, 29, 48)   144         conv2d_584[0][0]                 
__________________________________________________________________________________________________
activation_515 (Activation)     (None, 29, 29, 32)   0           batch_normalization_575[0][0]    
__________________________________________________________________________________________________
activation_518 (Activation)     (None, 29, 29, 48)   0           batch_normalization_578[0][0]    
__________________________________________________________________________________________________
conv2d_580 (Conv2D)             (None, 29, 29, 32)   10240       mixed_5b[0][0]                   
__________________________________________________________________________________________________
conv2d_582 (Conv2D)             (None, 29, 29, 32)   9216        activation_515[0][0]             
__________________________________________________________________________________________________
conv2d_585 (Conv2D)             (None, 29, 29, 64)   27648       activation_518[0][0]             
__________________________________________________________________________________________________
batch_normalization_574 (BatchN (None, 29, 29, 32)   96          conv2d_580[0][0]                 
__________________________________________________________________________________________________
batch_normalization_576 (BatchN (None, 29, 29, 32)   96          conv2d_582[0][0]                 
__________________________________________________________________________________________________
batch_normalization_579 (BatchN (None, 29, 29, 64)   192         conv2d_585[0][0]                 
__________________________________________________________________________________________________
activation_514 (Activation)     (None, 29, 29, 32)   0           batch_normalization_574[0][0]    
__________________________________________________________________________________________________
activation_516 (Activation)     (None, 29, 29, 32)   0           batch_normalization_576[0][0]    
__________________________________________________________________________________________________
activation_519 (Activation)     (None, 29, 29, 64)   0           batch_normalization_579[0][0]    
__________________________________________________________________________________________________
block35_1_mixed (Concatenate)   (None, 29, 29, 128)  0           activation_514[0][0]             
                                                                 activation_516[0][0]             
                                                                 activation_519[0][0]             
__________________________________________________________________________________________________
block35_1_conv (Conv2D)         (None, 29, 29, 320)  41280       block35_1_mixed[0][0]            
__________________________________________________________________________________________________
block35_1 (Lambda)              (None, 29, 29, 320)  0           mixed_5b[0][0]                   
                                                                 block35_1_conv[0][0]             
__________________________________________________________________________________________________
block35_1_ac (Activation)       (None, 29, 29, 320)  0           block35_1[0][0]                  
__________________________________________________________________________________________________
conv2d_589 (Conv2D)             (None, 29, 29, 32)   10240       block35_1_ac[0][0]               
__________________________________________________________________________________________________
batch_normalization_583 (BatchN (None, 29, 29, 32)   96          conv2d_589[0][0]                 
__________________________________________________________________________________________________
activation_523 (Activation)     (None, 29, 29, 32)   0           batch_normalization_583[0][0]    
__________________________________________________________________________________________________
conv2d_587 (Conv2D)             (None, 29, 29, 32)   10240       block35_1_ac[0][0]               
__________________________________________________________________________________________________
conv2d_590 (Conv2D)             (None, 29, 29, 48)   13824       activation_523[0][0]             
__________________________________________________________________________________________________
batch_normalization_581 (BatchN (None, 29, 29, 32)   96          conv2d_587[0][0]                 
__________________________________________________________________________________________________
batch_normalization_584 (BatchN (None, 29, 29, 48)   144         conv2d_590[0][0]                 
__________________________________________________________________________________________________
activation_521 (Activation)     (None, 29, 29, 32)   0           batch_normalization_581[0][0]    
__________________________________________________________________________________________________
activation_524 (Activation)     (None, 29, 29, 48)   0           batch_normalization_584[0][0]    
__________________________________________________________________________________________________
conv2d_586 (Conv2D)             (None, 29, 29, 32)   10240       block35_1_ac[0][0]               
__________________________________________________________________________________________________
conv2d_588 (Conv2D)             (None, 29, 29, 32)   9216        activation_521[0][0]             
__________________________________________________________________________________________________
conv2d_591 (Conv2D)             (None, 29, 29, 64)   27648       activation_524[0][0]             
__________________________________________________________________________________________________
batch_normalization_580 (BatchN (None, 29, 29, 32)   96          conv2d_586[0][0]                 
__________________________________________________________________________________________________
batch_normalization_582 (BatchN (None, 29, 29, 32)   96          conv2d_588[0][0]                 
__________________________________________________________________________________________________
batch_normalization_585 (BatchN (None, 29, 29, 64)   192         conv2d_591[0][0]                 
__________________________________________________________________________________________________
activation_520 (Activation)     (None, 29, 29, 32)   0           batch_normalization_580[0][0]    
__________________________________________________________________________________________________
activation_522 (Activation)     (None, 29, 29, 32)   0           batch_normalization_582[0][0]    
__________________________________________________________________________________________________
activation_525 (Activation)     (None, 29, 29, 64)   0           batch_normalization_585[0][0]    
__________________________________________________________________________________________________
block35_2_mixed (Concatenate)   (None, 29, 29, 128)  0           activation_520[0][0]             
                                                                 activation_522[0][0]             
                                                                 activation_525[0][0]             
__________________________________________________________________________________________________
block35_2_conv (Conv2D)         (None, 29, 29, 320)  41280       block35_2_mixed[0][0]            
__________________________________________________________________________________________________
block35_2 (Lambda)              (None, 29, 29, 320)  0           block35_1_ac[0][0]               
                                                                 block35_2_conv[0][0]             
__________________________________________________________________________________________________
block35_2_ac (Activation)       (None, 29, 29, 320)  0           block35_2[0][0]                  
__________________________________________________________________________________________________
conv2d_595 (Conv2D)             (None, 29, 29, 32)   10240       block35_2_ac[0][0]               
__________________________________________________________________________________________________
batch_normalization_589 (BatchN (None, 29, 29, 32)   96          conv2d_595[0][0]                 
__________________________________________________________________________________________________
activation_529 (Activation)     (None, 29, 29, 32)   0           batch_normalization_589[0][0]    
__________________________________________________________________________________________________
conv2d_593 (Conv2D)             (None, 29, 29, 32)   10240       block35_2_ac[0][0]               
__________________________________________________________________________________________________
conv2d_596 (Conv2D)             (None, 29, 29, 48)   13824       activation_529[0][0]             
__________________________________________________________________________________________________
batch_normalization_587 (BatchN (None, 29, 29, 32)   96          conv2d_593[0][0]                 
__________________________________________________________________________________________________
batch_normalization_590 (BatchN (None, 29, 29, 48)   144         conv2d_596[0][0]                 
__________________________________________________________________________________________________
activation_527 (Activation)     (None, 29, 29, 32)   0           batch_normalization_587[0][0]    
__________________________________________________________________________________________________
activation_530 (Activation)     (None, 29, 29, 48)   0           batch_normalization_590[0][0]    
__________________________________________________________________________________________________
conv2d_592 (Conv2D)             (None, 29, 29, 32)   10240       block35_2_ac[0][0]               
__________________________________________________________________________________________________
conv2d_594 (Conv2D)             (None, 29, 29, 32)   9216        activation_527[0][0]             
__________________________________________________________________________________________________
conv2d_597 (Conv2D)             (None, 29, 29, 64)   27648       activation_530[0][0]             
__________________________________________________________________________________________________
batch_normalization_586 (BatchN (None, 29, 29, 32)   96          conv2d_592[0][0]                 
__________________________________________________________________________________________________
batch_normalization_588 (BatchN (None, 29, 29, 32)   96          conv2d_594[0][0]                 
__________________________________________________________________________________________________
batch_normalization_591 (BatchN (None, 29, 29, 64)   192         conv2d_597[0][0]                 
__________________________________________________________________________________________________
activation_526 (Activation)     (None, 29, 29, 32)   0           batch_normalization_586[0][0]    
__________________________________________________________________________________________________
activation_528 (Activation)     (None, 29, 29, 32)   0           batch_normalization_588[0][0]    
__________________________________________________________________________________________________
activation_531 (Activation)     (None, 29, 29, 64)   0           batch_normalization_591[0][0]    
__________________________________________________________________________________________________
block35_3_mixed (Concatenate)   (None, 29, 29, 128)  0           activation_526[0][0]             
                                                                 activation_528[0][0]             
                                                                 activation_531[0][0]             
__________________________________________________________________________________________________
block35_3_conv (Conv2D)         (None, 29, 29, 320)  41280       block35_3_mixed[0][0]            
__________________________________________________________________________________________________
block35_3 (Lambda)              (None, 29, 29, 320)  0           block35_2_ac[0][0]               
                                                                 block35_3_conv[0][0]             
__________________________________________________________________________________________________
block35_3_ac (Activation)       (None, 29, 29, 320)  0           block35_3[0][0]                  
__________________________________________________________________________________________________
conv2d_601 (Conv2D)             (None, 29, 29, 32)   10240       block35_3_ac[0][0]               
__________________________________________________________________________________________________
batch_normalization_595 (BatchN (None, 29, 29, 32)   96          conv2d_601[0][0]                 
__________________________________________________________________________________________________
activation_535 (Activation)     (None, 29, 29, 32)   0           batch_normalization_595[0][0]    
__________________________________________________________________________________________________
conv2d_599 (Conv2D)             (None, 29, 29, 32)   10240       block35_3_ac[0][0]               
__________________________________________________________________________________________________
conv2d_602 (Conv2D)             (None, 29, 29, 48)   13824       activation_535[0][0]             
__________________________________________________________________________________________________
batch_normalization_593 (BatchN (None, 29, 29, 32)   96          conv2d_599[0][0]                 
__________________________________________________________________________________________________
batch_normalization_596 (BatchN (None, 29, 29, 48)   144         conv2d_602[0][0]                 
__________________________________________________________________________________________________
activation_533 (Activation)     (None, 29, 29, 32)   0           batch_normalization_593[0][0]    
__________________________________________________________________________________________________
activation_536 (Activation)     (None, 29, 29, 48)   0           batch_normalization_596[0][0]    
__________________________________________________________________________________________________
conv2d_598 (Conv2D)             (None, 29, 29, 32)   10240       block35_3_ac[0][0]               
__________________________________________________________________________________________________
conv2d_600 (Conv2D)             (None, 29, 29, 32)   9216        activation_533[0][0]             
__________________________________________________________________________________________________
conv2d_603 (Conv2D)             (None, 29, 29, 64)   27648       activation_536[0][0]             
__________________________________________________________________________________________________
batch_normalization_592 (BatchN (None, 29, 29, 32)   96          conv2d_598[0][0]                 
__________________________________________________________________________________________________
batch_normalization_594 (BatchN (None, 29, 29, 32)   96          conv2d_600[0][0]                 
__________________________________________________________________________________________________
batch_normalization_597 (BatchN (None, 29, 29, 64)   192         conv2d_603[0][0]                 
__________________________________________________________________________________________________
activation_532 (Activation)     (None, 29, 29, 32)   0           batch_normalization_592[0][0]    
__________________________________________________________________________________________________
activation_534 (Activation)     (None, 29, 29, 32)   0           batch_normalization_594[0][0]    
__________________________________________________________________________________________________
activation_537 (Activation)     (None, 29, 29, 64)   0           batch_normalization_597[0][0]    
__________________________________________________________________________________________________
block35_4_mixed (Concatenate)   (None, 29, 29, 128)  0           activation_532[0][0]             
                                                                 activation_534[0][0]             
                                                                 activation_537[0][0]             
__________________________________________________________________________________________________
block35_4_conv (Conv2D)         (None, 29, 29, 320)  41280       block35_4_mixed[0][0]            
__________________________________________________________________________________________________
block35_4 (Lambda)              (None, 29, 29, 320)  0           block35_3_ac[0][0]               
                                                                 block35_4_conv[0][0]             
__________________________________________________________________________________________________
block35_4_ac (Activation)       (None, 29, 29, 320)  0           block35_4[0][0]                  
__________________________________________________________________________________________________
conv2d_607 (Conv2D)             (None, 29, 29, 32)   10240       block35_4_ac[0][0]               
__________________________________________________________________________________________________
batch_normalization_601 (BatchN (None, 29, 29, 32)   96          conv2d_607[0][0]                 
__________________________________________________________________________________________________
activation_541 (Activation)     (None, 29, 29, 32)   0           batch_normalization_601[0][0]    
__________________________________________________________________________________________________
conv2d_605 (Conv2D)             (None, 29, 29, 32)   10240       block35_4_ac[0][0]               
__________________________________________________________________________________________________
conv2d_608 (Conv2D)             (None, 29, 29, 48)   13824       activation_541[0][0]             
__________________________________________________________________________________________________
batch_normalization_599 (BatchN (None, 29, 29, 32)   96          conv2d_605[0][0]                 
__________________________________________________________________________________________________
batch_normalization_602 (BatchN (None, 29, 29, 48)   144         conv2d_608[0][0]                 
__________________________________________________________________________________________________
activation_539 (Activation)     (None, 29, 29, 32)   0           batch_normalization_599[0][0]    
__________________________________________________________________________________________________
activation_542 (Activation)     (None, 29, 29, 48)   0           batch_normalization_602[0][0]    
__________________________________________________________________________________________________
conv2d_604 (Conv2D)             (None, 29, 29, 32)   10240       block35_4_ac[0][0]               
__________________________________________________________________________________________________
conv2d_606 (Conv2D)             (None, 29, 29, 32)   9216        activation_539[0][0]             
__________________________________________________________________________________________________
conv2d_609 (Conv2D)             (None, 29, 29, 64)   27648       activation_542[0][0]             
__________________________________________________________________________________________________
batch_normalization_598 (BatchN (None, 29, 29, 32)   96          conv2d_604[0][0]                 
__________________________________________________________________________________________________
batch_normalization_600 (BatchN (None, 29, 29, 32)   96          conv2d_606[0][0]                 
__________________________________________________________________________________________________
batch_normalization_603 (BatchN (None, 29, 29, 64)   192         conv2d_609[0][0]                 
__________________________________________________________________________________________________
activation_538 (Activation)     (None, 29, 29, 32)   0           batch_normalization_598[0][0]    
__________________________________________________________________________________________________
activation_540 (Activation)     (None, 29, 29, 32)   0           batch_normalization_600[0][0]    
__________________________________________________________________________________________________
activation_543 (Activation)     (None, 29, 29, 64)   0           batch_normalization_603[0][0]    
__________________________________________________________________________________________________
block35_5_mixed (Concatenate)   (None, 29, 29, 128)  0           activation_538[0][0]             
                                                                 activation_540[0][0]             
                                                                 activation_543[0][0]             
__________________________________________________________________________________________________
block35_5_conv (Conv2D)         (None, 29, 29, 320)  41280       block35_5_mixed[0][0]            
__________________________________________________________________________________________________
block35_5 (Lambda)              (None, 29, 29, 320)  0           block35_4_ac[0][0]               
                                                                 block35_5_conv[0][0]             
__________________________________________________________________________________________________
block35_5_ac (Activation)       (None, 29, 29, 320)  0           block35_5[0][0]                  
__________________________________________________________________________________________________
conv2d_613 (Conv2D)             (None, 29, 29, 32)   10240       block35_5_ac[0][0]               
__________________________________________________________________________________________________
batch_normalization_607 (BatchN (None, 29, 29, 32)   96          conv2d_613[0][0]                 
__________________________________________________________________________________________________
activation_547 (Activation)     (None, 29, 29, 32)   0           batch_normalization_607[0][0]    
__________________________________________________________________________________________________
conv2d_611 (Conv2D)             (None, 29, 29, 32)   10240       block35_5_ac[0][0]               
__________________________________________________________________________________________________
conv2d_614 (Conv2D)             (None, 29, 29, 48)   13824       activation_547[0][0]             
__________________________________________________________________________________________________
batch_normalization_605 (BatchN (None, 29, 29, 32)   96          conv2d_611[0][0]                 
__________________________________________________________________________________________________
batch_normalization_608 (BatchN (None, 29, 29, 48)   144         conv2d_614[0][0]                 
__________________________________________________________________________________________________
activation_545 (Activation)     (None, 29, 29, 32)   0           batch_normalization_605[0][0]    
__________________________________________________________________________________________________
activation_548 (Activation)     (None, 29, 29, 48)   0           batch_normalization_608[0][0]    
__________________________________________________________________________________________________
conv2d_610 (Conv2D)             (None, 29, 29, 32)   10240       block35_5_ac[0][0]               
__________________________________________________________________________________________________
conv2d_612 (Conv2D)             (None, 29, 29, 32)   9216        activation_545[0][0]             
__________________________________________________________________________________________________
conv2d_615 (Conv2D)             (None, 29, 29, 64)   27648       activation_548[0][0]             
__________________________________________________________________________________________________
batch_normalization_604 (BatchN (None, 29, 29, 32)   96          conv2d_610[0][0]                 
__________________________________________________________________________________________________
batch_normalization_606 (BatchN (None, 29, 29, 32)   96          conv2d_612[0][0]                 
__________________________________________________________________________________________________
batch_normalization_609 (BatchN (None, 29, 29, 64)   192         conv2d_615[0][0]                 
__________________________________________________________________________________________________
activation_544 (Activation)     (None, 29, 29, 32)   0           batch_normalization_604[0][0]    
__________________________________________________________________________________________________
activation_546 (Activation)     (None, 29, 29, 32)   0           batch_normalization_606[0][0]    
__________________________________________________________________________________________________
activation_549 (Activation)     (None, 29, 29, 64)   0           batch_normalization_609[0][0]    
__________________________________________________________________________________________________
block35_6_mixed (Concatenate)   (None, 29, 29, 128)  0           activation_544[0][0]             
                                                                 activation_546[0][0]             
                                                                 activation_549[0][0]             
__________________________________________________________________________________________________
block35_6_conv (Conv2D)         (None, 29, 29, 320)  41280       block35_6_mixed[0][0]            
__________________________________________________________________________________________________
block35_6 (Lambda)              (None, 29, 29, 320)  0           block35_5_ac[0][0]               
                                                                 block35_6_conv[0][0]             
__________________________________________________________________________________________________
block35_6_ac (Activation)       (None, 29, 29, 320)  0           block35_6[0][0]                  
__________________________________________________________________________________________________
conv2d_619 (Conv2D)             (None, 29, 29, 32)   10240       block35_6_ac[0][0]               
__________________________________________________________________________________________________
batch_normalization_613 (BatchN (None, 29, 29, 32)   96          conv2d_619[0][0]                 
__________________________________________________________________________________________________
activation_553 (Activation)     (None, 29, 29, 32)   0           batch_normalization_613[0][0]    
__________________________________________________________________________________________________
conv2d_617 (Conv2D)             (None, 29, 29, 32)   10240       block35_6_ac[0][0]               
__________________________________________________________________________________________________
conv2d_620 (Conv2D)             (None, 29, 29, 48)   13824       activation_553[0][0]             
__________________________________________________________________________________________________
batch_normalization_611 (BatchN (None, 29, 29, 32)   96          conv2d_617[0][0]                 
__________________________________________________________________________________________________
batch_normalization_614 (BatchN (None, 29, 29, 48)   144         conv2d_620[0][0]                 
__________________________________________________________________________________________________
activation_551 (Activation)     (None, 29, 29, 32)   0           batch_normalization_611[0][0]    
__________________________________________________________________________________________________
activation_554 (Activation)     (None, 29, 29, 48)   0           batch_normalization_614[0][0]    
__________________________________________________________________________________________________
conv2d_616 (Conv2D)             (None, 29, 29, 32)   10240       block35_6_ac[0][0]               
__________________________________________________________________________________________________
conv2d_618 (Conv2D)             (None, 29, 29, 32)   9216        activation_551[0][0]             
__________________________________________________________________________________________________
conv2d_621 (Conv2D)             (None, 29, 29, 64)   27648       activation_554[0][0]             
__________________________________________________________________________________________________
batch_normalization_610 (BatchN (None, 29, 29, 32)   96          conv2d_616[0][0]                 
__________________________________________________________________________________________________
batch_normalization_612 (BatchN (None, 29, 29, 32)   96          conv2d_618[0][0]                 
__________________________________________________________________________________________________
batch_normalization_615 (BatchN (None, 29, 29, 64)   192         conv2d_621[0][0]                 
__________________________________________________________________________________________________
activation_550 (Activation)     (None, 29, 29, 32)   0           batch_normalization_610[0][0]    
__________________________________________________________________________________________________
activation_552 (Activation)     (None, 29, 29, 32)   0           batch_normalization_612[0][0]    
__________________________________________________________________________________________________
activation_555 (Activation)     (None, 29, 29, 64)   0           batch_normalization_615[0][0]    
__________________________________________________________________________________________________
block35_7_mixed (Concatenate)   (None, 29, 29, 128)  0           activation_550[0][0]             
                                                                 activation_552[0][0]             
                                                                 activation_555[0][0]             
__________________________________________________________________________________________________
block35_7_conv (Conv2D)         (None, 29, 29, 320)  41280       block35_7_mixed[0][0]            
__________________________________________________________________________________________________
block35_7 (Lambda)              (None, 29, 29, 320)  0           block35_6_ac[0][0]               
                                                                 block35_7_conv[0][0]             
__________________________________________________________________________________________________
block35_7_ac (Activation)       (None, 29, 29, 320)  0           block35_7[0][0]                  
__________________________________________________________________________________________________
conv2d_625 (Conv2D)             (None, 29, 29, 32)   10240       block35_7_ac[0][0]               
__________________________________________________________________________________________________
batch_normalization_619 (BatchN (None, 29, 29, 32)   96          conv2d_625[0][0]                 
__________________________________________________________________________________________________
activation_559 (Activation)     (None, 29, 29, 32)   0           batch_normalization_619[0][0]    
__________________________________________________________________________________________________
conv2d_623 (Conv2D)             (None, 29, 29, 32)   10240       block35_7_ac[0][0]               
__________________________________________________________________________________________________
conv2d_626 (Conv2D)             (None, 29, 29, 48)   13824       activation_559[0][0]             
__________________________________________________________________________________________________
batch_normalization_617 (BatchN (None, 29, 29, 32)   96          conv2d_623[0][0]                 
__________________________________________________________________________________________________
batch_normalization_620 (BatchN (None, 29, 29, 48)   144         conv2d_626[0][0]                 
__________________________________________________________________________________________________
activation_557 (Activation)     (None, 29, 29, 32)   0           batch_normalization_617[0][0]    
__________________________________________________________________________________________________
activation_560 (Activation)     (None, 29, 29, 48)   0           batch_normalization_620[0][0]    
__________________________________________________________________________________________________
conv2d_622 (Conv2D)             (None, 29, 29, 32)   10240       block35_7_ac[0][0]               
__________________________________________________________________________________________________
conv2d_624 (Conv2D)             (None, 29, 29, 32)   9216        activation_557[0][0]             
__________________________________________________________________________________________________
conv2d_627 (Conv2D)             (None, 29, 29, 64)   27648       activation_560[0][0]             
__________________________________________________________________________________________________
batch_normalization_616 (BatchN (None, 29, 29, 32)   96          conv2d_622[0][0]                 
__________________________________________________________________________________________________
batch_normalization_618 (BatchN (None, 29, 29, 32)   96          conv2d_624[0][0]                 
__________________________________________________________________________________________________
batch_normalization_621 (BatchN (None, 29, 29, 64)   192         conv2d_627[0][0]                 
__________________________________________________________________________________________________
activation_556 (Activation)     (None, 29, 29, 32)   0           batch_normalization_616[0][0]    
__________________________________________________________________________________________________
activation_558 (Activation)     (None, 29, 29, 32)   0           batch_normalization_618[0][0]    
__________________________________________________________________________________________________
activation_561 (Activation)     (None, 29, 29, 64)   0           batch_normalization_621[0][0]    
__________________________________________________________________________________________________
block35_8_mixed (Concatenate)   (None, 29, 29, 128)  0           activation_556[0][0]             
                                                                 activation_558[0][0]             
                                                                 activation_561[0][0]             
__________________________________________________________________________________________________
block35_8_conv (Conv2D)         (None, 29, 29, 320)  41280       block35_8_mixed[0][0]            
__________________________________________________________________________________________________
block35_8 (Lambda)              (None, 29, 29, 320)  0           block35_7_ac[0][0]               
                                                                 block35_8_conv[0][0]             
__________________________________________________________________________________________________
block35_8_ac (Activation)       (None, 29, 29, 320)  0           block35_8[0][0]                  
__________________________________________________________________________________________________
conv2d_631 (Conv2D)             (None, 29, 29, 32)   10240       block35_8_ac[0][0]               
__________________________________________________________________________________________________
batch_normalization_625 (BatchN (None, 29, 29, 32)   96          conv2d_631[0][0]                 
__________________________________________________________________________________________________
activation_565 (Activation)     (None, 29, 29, 32)   0           batch_normalization_625[0][0]    
__________________________________________________________________________________________________
conv2d_629 (Conv2D)             (None, 29, 29, 32)   10240       block35_8_ac[0][0]               
__________________________________________________________________________________________________
conv2d_632 (Conv2D)             (None, 29, 29, 48)   13824       activation_565[0][0]             
__________________________________________________________________________________________________
batch_normalization_623 (BatchN (None, 29, 29, 32)   96          conv2d_629[0][0]                 
__________________________________________________________________________________________________
batch_normalization_626 (BatchN (None, 29, 29, 48)   144         conv2d_632[0][0]                 
__________________________________________________________________________________________________
activation_563 (Activation)     (None, 29, 29, 32)   0           batch_normalization_623[0][0]    
__________________________________________________________________________________________________
activation_566 (Activation)     (None, 29, 29, 48)   0           batch_normalization_626[0][0]    
__________________________________________________________________________________________________
conv2d_628 (Conv2D)             (None, 29, 29, 32)   10240       block35_8_ac[0][0]               
__________________________________________________________________________________________________
conv2d_630 (Conv2D)             (None, 29, 29, 32)   9216        activation_563[0][0]             
__________________________________________________________________________________________________
conv2d_633 (Conv2D)             (None, 29, 29, 64)   27648       activation_566[0][0]             
__________________________________________________________________________________________________
batch_normalization_622 (BatchN (None, 29, 29, 32)   96          conv2d_628[0][0]                 
__________________________________________________________________________________________________
batch_normalization_624 (BatchN (None, 29, 29, 32)   96          conv2d_630[0][0]                 
__________________________________________________________________________________________________
batch_normalization_627 (BatchN (None, 29, 29, 64)   192         conv2d_633[0][0]                 
__________________________________________________________________________________________________
activation_562 (Activation)     (None, 29, 29, 32)   0           batch_normalization_622[0][0]    
__________________________________________________________________________________________________
activation_564 (Activation)     (None, 29, 29, 32)   0           batch_normalization_624[0][0]    
__________________________________________________________________________________________________
activation_567 (Activation)     (None, 29, 29, 64)   0           batch_normalization_627[0][0]    
__________________________________________________________________________________________________
block35_9_mixed (Concatenate)   (None, 29, 29, 128)  0           activation_562[0][0]             
                                                                 activation_564[0][0]             
                                                                 activation_567[0][0]             
__________________________________________________________________________________________________
block35_9_conv (Conv2D)         (None, 29, 29, 320)  41280       block35_9_mixed[0][0]            
__________________________________________________________________________________________________
block35_9 (Lambda)              (None, 29, 29, 320)  0           block35_8_ac[0][0]               
                                                                 block35_9_conv[0][0]             
__________________________________________________________________________________________________
block35_9_ac (Activation)       (None, 29, 29, 320)  0           block35_9[0][0]                  
__________________________________________________________________________________________________
conv2d_637 (Conv2D)             (None, 29, 29, 32)   10240       block35_9_ac[0][0]               
__________________________________________________________________________________________________
batch_normalization_631 (BatchN (None, 29, 29, 32)   96          conv2d_637[0][0]                 
__________________________________________________________________________________________________
activation_571 (Activation)     (None, 29, 29, 32)   0           batch_normalization_631[0][0]    
__________________________________________________________________________________________________
conv2d_635 (Conv2D)             (None, 29, 29, 32)   10240       block35_9_ac[0][0]               
__________________________________________________________________________________________________
conv2d_638 (Conv2D)             (None, 29, 29, 48)   13824       activation_571[0][0]             
__________________________________________________________________________________________________
batch_normalization_629 (BatchN (None, 29, 29, 32)   96          conv2d_635[0][0]                 
__________________________________________________________________________________________________
batch_normalization_632 (BatchN (None, 29, 29, 48)   144         conv2d_638[0][0]                 
__________________________________________________________________________________________________
activation_569 (Activation)     (None, 29, 29, 32)   0           batch_normalization_629[0][0]    
__________________________________________________________________________________________________
activation_572 (Activation)     (None, 29, 29, 48)   0           batch_normalization_632[0][0]    
__________________________________________________________________________________________________
conv2d_634 (Conv2D)             (None, 29, 29, 32)   10240       block35_9_ac[0][0]               
__________________________________________________________________________________________________
conv2d_636 (Conv2D)             (None, 29, 29, 32)   9216        activation_569[0][0]             
__________________________________________________________________________________________________
conv2d_639 (Conv2D)             (None, 29, 29, 64)   27648       activation_572[0][0]             
__________________________________________________________________________________________________
batch_normalization_628 (BatchN (None, 29, 29, 32)   96          conv2d_634[0][0]                 
__________________________________________________________________________________________________
batch_normalization_630 (BatchN (None, 29, 29, 32)   96          conv2d_636[0][0]                 
__________________________________________________________________________________________________
batch_normalization_633 (BatchN (None, 29, 29, 64)   192         conv2d_639[0][0]                 
__________________________________________________________________________________________________
activation_568 (Activation)     (None, 29, 29, 32)   0           batch_normalization_628[0][0]    
__________________________________________________________________________________________________
activation_570 (Activation)     (None, 29, 29, 32)   0           batch_normalization_630[0][0]    
__________________________________________________________________________________________________
activation_573 (Activation)     (None, 29, 29, 64)   0           batch_normalization_633[0][0]    
__________________________________________________________________________________________________
block35_10_mixed (Concatenate)  (None, 29, 29, 128)  0           activation_568[0][0]             
                                                                 activation_570[0][0]             
                                                                 activation_573[0][0]             
__________________________________________________________________________________________________
block35_10_conv (Conv2D)        (None, 29, 29, 320)  41280       block35_10_mixed[0][0]           
__________________________________________________________________________________________________
block35_10 (Lambda)             (None, 29, 29, 320)  0           block35_9_ac[0][0]               
                                                                 block35_10_conv[0][0]            
__________________________________________________________________________________________________
block35_10_ac (Activation)      (None, 29, 29, 320)  0           block35_10[0][0]                 
__________________________________________________________________________________________________
conv2d_641 (Conv2D)             (None, 29, 29, 256)  81920       block35_10_ac[0][0]              
__________________________________________________________________________________________________
batch_normalization_635 (BatchN (None, 29, 29, 256)  768         conv2d_641[0][0]                 
__________________________________________________________________________________________________
activation_575 (Activation)     (None, 29, 29, 256)  0           batch_normalization_635[0][0]    
__________________________________________________________________________________________________
conv2d_642 (Conv2D)             (None, 29, 29, 256)  589824      activation_575[0][0]             
__________________________________________________________________________________________________
batch_normalization_636 (BatchN (None, 29, 29, 256)  768         conv2d_642[0][0]                 
__________________________________________________________________________________________________
activation_576 (Activation)     (None, 29, 29, 256)  0           batch_normalization_636[0][0]    
__________________________________________________________________________________________________
conv2d_640 (Conv2D)             (None, 14, 14, 384)  1105920     block35_10_ac[0][0]              
__________________________________________________________________________________________________
conv2d_643 (Conv2D)             (None, 14, 14, 384)  884736      activation_576[0][0]             
__________________________________________________________________________________________________
batch_normalization_634 (BatchN (None, 14, 14, 384)  1152        conv2d_640[0][0]                 
__________________________________________________________________________________________________
batch_normalization_637 (BatchN (None, 14, 14, 384)  1152        conv2d_643[0][0]                 
__________________________________________________________________________________________________
activation_574 (Activation)     (None, 14, 14, 384)  0           batch_normalization_634[0][0]    
__________________________________________________________________________________________________
activation_577 (Activation)     (None, 14, 14, 384)  0           batch_normalization_637[0][0]    
__________________________________________________________________________________________________
max_pooling2d_40 (MaxPooling2D) (None, 14, 14, 320)  0           block35_10_ac[0][0]              
__________________________________________________________________________________________________
mixed_6a (Concatenate)          (None, 14, 14, 1088) 0           activation_574[0][0]             
                                                                 activation_577[0][0]             
                                                                 max_pooling2d_40[0][0]           
__________________________________________________________________________________________________
conv2d_645 (Conv2D)             (None, 14, 14, 128)  139264      mixed_6a[0][0]                   
__________________________________________________________________________________________________
batch_normalization_639 (BatchN (None, 14, 14, 128)  384         conv2d_645[0][0]                 
__________________________________________________________________________________________________
activation_579 (Activation)     (None, 14, 14, 128)  0           batch_normalization_639[0][0]    
__________________________________________________________________________________________________
conv2d_646 (Conv2D)             (None, 14, 14, 160)  143360      activation_579[0][0]             
__________________________________________________________________________________________________
batch_normalization_640 (BatchN (None, 14, 14, 160)  480         conv2d_646[0][0]                 
__________________________________________________________________________________________________
activation_580 (Activation)     (None, 14, 14, 160)  0           batch_normalization_640[0][0]    
__________________________________________________________________________________________________
conv2d_644 (Conv2D)             (None, 14, 14, 192)  208896      mixed_6a[0][0]                   
__________________________________________________________________________________________________
conv2d_647 (Conv2D)             (None, 14, 14, 192)  215040      activation_580[0][0]             
__________________________________________________________________________________________________
batch_normalization_638 (BatchN (None, 14, 14, 192)  576         conv2d_644[0][0]                 
__________________________________________________________________________________________________
batch_normalization_641 (BatchN (None, 14, 14, 192)  576         conv2d_647[0][0]                 
__________________________________________________________________________________________________
activation_578 (Activation)     (None, 14, 14, 192)  0           batch_normalization_638[0][0]    
__________________________________________________________________________________________________
activation_581 (Activation)     (None, 14, 14, 192)  0           batch_normalization_641[0][0]    
__________________________________________________________________________________________________
block17_1_mixed (Concatenate)   (None, 14, 14, 384)  0           activation_578[0][0]             
                                                                 activation_581[0][0]             
__________________________________________________________________________________________________
block17_1_conv (Conv2D)         (None, 14, 14, 1088) 418880      block17_1_mixed[0][0]            
__________________________________________________________________________________________________
block17_1 (Lambda)              (None, 14, 14, 1088) 0           mixed_6a[0][0]                   
                                                                 block17_1_conv[0][0]             
__________________________________________________________________________________________________
block17_1_ac (Activation)       (None, 14, 14, 1088) 0           block17_1[0][0]                  
__________________________________________________________________________________________________
conv2d_649 (Conv2D)             (None, 14, 14, 128)  139264      block17_1_ac[0][0]               
__________________________________________________________________________________________________
batch_normalization_643 (BatchN (None, 14, 14, 128)  384         conv2d_649[0][0]                 
__________________________________________________________________________________________________
activation_583 (Activation)     (None, 14, 14, 128)  0           batch_normalization_643[0][0]    
__________________________________________________________________________________________________
conv2d_650 (Conv2D)             (None, 14, 14, 160)  143360      activation_583[0][0]             
__________________________________________________________________________________________________
batch_normalization_644 (BatchN (None, 14, 14, 160)  480         conv2d_650[0][0]                 
__________________________________________________________________________________________________
activation_584 (Activation)     (None, 14, 14, 160)  0           batch_normalization_644[0][0]    
__________________________________________________________________________________________________
conv2d_648 (Conv2D)             (None, 14, 14, 192)  208896      block17_1_ac[0][0]               
__________________________________________________________________________________________________
conv2d_651 (Conv2D)             (None, 14, 14, 192)  215040      activation_584[0][0]             
__________________________________________________________________________________________________
batch_normalization_642 (BatchN (None, 14, 14, 192)  576         conv2d_648[0][0]                 
__________________________________________________________________________________________________
batch_normalization_645 (BatchN (None, 14, 14, 192)  576         conv2d_651[0][0]                 
__________________________________________________________________________________________________
activation_582 (Activation)     (None, 14, 14, 192)  0           batch_normalization_642[0][0]    
__________________________________________________________________________________________________
activation_585 (Activation)     (None, 14, 14, 192)  0           batch_normalization_645[0][0]    
__________________________________________________________________________________________________
block17_2_mixed (Concatenate)   (None, 14, 14, 384)  0           activation_582[0][0]             
                                                                 activation_585[0][0]             
__________________________________________________________________________________________________
block17_2_conv (Conv2D)         (None, 14, 14, 1088) 418880      block17_2_mixed[0][0]            
__________________________________________________________________________________________________
block17_2 (Lambda)              (None, 14, 14, 1088) 0           block17_1_ac[0][0]               
                                                                 block17_2_conv[0][0]             
__________________________________________________________________________________________________
block17_2_ac (Activation)       (None, 14, 14, 1088) 0           block17_2[0][0]                  
__________________________________________________________________________________________________
conv2d_653 (Conv2D)             (None, 14, 14, 128)  139264      block17_2_ac[0][0]               
__________________________________________________________________________________________________
batch_normalization_647 (BatchN (None, 14, 14, 128)  384         conv2d_653[0][0]                 
__________________________________________________________________________________________________
activation_587 (Activation)     (None, 14, 14, 128)  0           batch_normalization_647[0][0]    
__________________________________________________________________________________________________
conv2d_654 (Conv2D)             (None, 14, 14, 160)  143360      activation_587[0][0]             
__________________________________________________________________________________________________
batch_normalization_648 (BatchN (None, 14, 14, 160)  480         conv2d_654[0][0]                 
__________________________________________________________________________________________________
activation_588 (Activation)     (None, 14, 14, 160)  0           batch_normalization_648[0][0]    
__________________________________________________________________________________________________
conv2d_652 (Conv2D)             (None, 14, 14, 192)  208896      block17_2_ac[0][0]               
__________________________________________________________________________________________________
conv2d_655 (Conv2D)             (None, 14, 14, 192)  215040      activation_588[0][0]             
__________________________________________________________________________________________________
batch_normalization_646 (BatchN (None, 14, 14, 192)  576         conv2d_652[0][0]                 
__________________________________________________________________________________________________
batch_normalization_649 (BatchN (None, 14, 14, 192)  576         conv2d_655[0][0]                 
__________________________________________________________________________________________________
activation_586 (Activation)     (None, 14, 14, 192)  0           batch_normalization_646[0][0]    
__________________________________________________________________________________________________
activation_589 (Activation)     (None, 14, 14, 192)  0           batch_normalization_649[0][0]    
__________________________________________________________________________________________________
block17_3_mixed (Concatenate)   (None, 14, 14, 384)  0           activation_586[0][0]             
                                                                 activation_589[0][0]             
__________________________________________________________________________________________________
block17_3_conv (Conv2D)         (None, 14, 14, 1088) 418880      block17_3_mixed[0][0]            
__________________________________________________________________________________________________
block17_3 (Lambda)              (None, 14, 14, 1088) 0           block17_2_ac[0][0]               
                                                                 block17_3_conv[0][0]             
__________________________________________________________________________________________________
block17_3_ac (Activation)       (None, 14, 14, 1088) 0           block17_3[0][0]                  
__________________________________________________________________________________________________
conv2d_657 (Conv2D)             (None, 14, 14, 128)  139264      block17_3_ac[0][0]               
__________________________________________________________________________________________________
batch_normalization_651 (BatchN (None, 14, 14, 128)  384         conv2d_657[0][0]                 
__________________________________________________________________________________________________
activation_591 (Activation)     (None, 14, 14, 128)  0           batch_normalization_651[0][0]    
__________________________________________________________________________________________________
conv2d_658 (Conv2D)             (None, 14, 14, 160)  143360      activation_591[0][0]             
__________________________________________________________________________________________________
batch_normalization_652 (BatchN (None, 14, 14, 160)  480         conv2d_658[0][0]                 
__________________________________________________________________________________________________
activation_592 (Activation)     (None, 14, 14, 160)  0           batch_normalization_652[0][0]    
__________________________________________________________________________________________________
conv2d_656 (Conv2D)             (None, 14, 14, 192)  208896      block17_3_ac[0][0]               
__________________________________________________________________________________________________
conv2d_659 (Conv2D)             (None, 14, 14, 192)  215040      activation_592[0][0]             
__________________________________________________________________________________________________
batch_normalization_650 (BatchN (None, 14, 14, 192)  576         conv2d_656[0][0]                 
__________________________________________________________________________________________________
batch_normalization_653 (BatchN (None, 14, 14, 192)  576         conv2d_659[0][0]                 
__________________________________________________________________________________________________
activation_590 (Activation)     (None, 14, 14, 192)  0           batch_normalization_650[0][0]    
__________________________________________________________________________________________________
activation_593 (Activation)     (None, 14, 14, 192)  0           batch_normalization_653[0][0]    
__________________________________________________________________________________________________
block17_4_mixed (Concatenate)   (None, 14, 14, 384)  0           activation_590[0][0]             
                                                                 activation_593[0][0]             
__________________________________________________________________________________________________
block17_4_conv (Conv2D)         (None, 14, 14, 1088) 418880      block17_4_mixed[0][0]            
__________________________________________________________________________________________________
block17_4 (Lambda)              (None, 14, 14, 1088) 0           block17_3_ac[0][0]               
                                                                 block17_4_conv[0][0]             
__________________________________________________________________________________________________
block17_4_ac (Activation)       (None, 14, 14, 1088) 0           block17_4[0][0]                  
__________________________________________________________________________________________________
conv2d_661 (Conv2D)             (None, 14, 14, 128)  139264      block17_4_ac[0][0]               
__________________________________________________________________________________________________
batch_normalization_655 (BatchN (None, 14, 14, 128)  384         conv2d_661[0][0]                 
__________________________________________________________________________________________________
activation_595 (Activation)     (None, 14, 14, 128)  0           batch_normalization_655[0][0]    
__________________________________________________________________________________________________
conv2d_662 (Conv2D)             (None, 14, 14, 160)  143360      activation_595[0][0]             
__________________________________________________________________________________________________
batch_normalization_656 (BatchN (None, 14, 14, 160)  480         conv2d_662[0][0]                 
__________________________________________________________________________________________________
activation_596 (Activation)     (None, 14, 14, 160)  0           batch_normalization_656[0][0]    
__________________________________________________________________________________________________
conv2d_660 (Conv2D)             (None, 14, 14, 192)  208896      block17_4_ac[0][0]               
__________________________________________________________________________________________________
conv2d_663 (Conv2D)             (None, 14, 14, 192)  215040      activation_596[0][0]             
__________________________________________________________________________________________________
batch_normalization_654 (BatchN (None, 14, 14, 192)  576         conv2d_660[0][0]                 
__________________________________________________________________________________________________
batch_normalization_657 (BatchN (None, 14, 14, 192)  576         conv2d_663[0][0]                 
__________________________________________________________________________________________________
activation_594 (Activation)     (None, 14, 14, 192)  0           batch_normalization_654[0][0]    
__________________________________________________________________________________________________
activation_597 (Activation)     (None, 14, 14, 192)  0           batch_normalization_657[0][0]    
__________________________________________________________________________________________________
block17_5_mixed (Concatenate)   (None, 14, 14, 384)  0           activation_594[0][0]             
                                                                 activation_597[0][0]             
__________________________________________________________________________________________________
block17_5_conv (Conv2D)         (None, 14, 14, 1088) 418880      block17_5_mixed[0][0]            
__________________________________________________________________________________________________
block17_5 (Lambda)              (None, 14, 14, 1088) 0           block17_4_ac[0][0]               
                                                                 block17_5_conv[0][0]             
__________________________________________________________________________________________________
block17_5_ac (Activation)       (None, 14, 14, 1088) 0           block17_5[0][0]                  
__________________________________________________________________________________________________
conv2d_665 (Conv2D)             (None, 14, 14, 128)  139264      block17_5_ac[0][0]               
__________________________________________________________________________________________________
batch_normalization_659 (BatchN (None, 14, 14, 128)  384         conv2d_665[0][0]                 
__________________________________________________________________________________________________
activation_599 (Activation)     (None, 14, 14, 128)  0           batch_normalization_659[0][0]    
__________________________________________________________________________________________________
conv2d_666 (Conv2D)             (None, 14, 14, 160)  143360      activation_599[0][0]             
__________________________________________________________________________________________________
batch_normalization_660 (BatchN (None, 14, 14, 160)  480         conv2d_666[0][0]                 
__________________________________________________________________________________________________
activation_600 (Activation)     (None, 14, 14, 160)  0           batch_normalization_660[0][0]    
__________________________________________________________________________________________________
conv2d_664 (Conv2D)             (None, 14, 14, 192)  208896      block17_5_ac[0][0]               
__________________________________________________________________________________________________
conv2d_667 (Conv2D)             (None, 14, 14, 192)  215040      activation_600[0][0]             
__________________________________________________________________________________________________
batch_normalization_658 (BatchN (None, 14, 14, 192)  576         conv2d_664[0][0]                 
__________________________________________________________________________________________________
batch_normalization_661 (BatchN (None, 14, 14, 192)  576         conv2d_667[0][0]                 
__________________________________________________________________________________________________
activation_598 (Activation)     (None, 14, 14, 192)  0           batch_normalization_658[0][0]    
__________________________________________________________________________________________________
activation_601 (Activation)     (None, 14, 14, 192)  0           batch_normalization_661[0][0]    
__________________________________________________________________________________________________
block17_6_mixed (Concatenate)   (None, 14, 14, 384)  0           activation_598[0][0]             
                                                                 activation_601[0][0]             
__________________________________________________________________________________________________
block17_6_conv (Conv2D)         (None, 14, 14, 1088) 418880      block17_6_mixed[0][0]            
__________________________________________________________________________________________________
block17_6 (Lambda)              (None, 14, 14, 1088) 0           block17_5_ac[0][0]               
                                                                 block17_6_conv[0][0]             
__________________________________________________________________________________________________
block17_6_ac (Activation)       (None, 14, 14, 1088) 0           block17_6[0][0]                  
__________________________________________________________________________________________________
conv2d_669 (Conv2D)             (None, 14, 14, 128)  139264      block17_6_ac[0][0]               
__________________________________________________________________________________________________
batch_normalization_663 (BatchN (None, 14, 14, 128)  384         conv2d_669[0][0]                 
__________________________________________________________________________________________________
activation_603 (Activation)     (None, 14, 14, 128)  0           batch_normalization_663[0][0]    
__________________________________________________________________________________________________
conv2d_670 (Conv2D)             (None, 14, 14, 160)  143360      activation_603[0][0]             
__________________________________________________________________________________________________
batch_normalization_664 (BatchN (None, 14, 14, 160)  480         conv2d_670[0][0]                 
__________________________________________________________________________________________________
activation_604 (Activation)     (None, 14, 14, 160)  0           batch_normalization_664[0][0]    
__________________________________________________________________________________________________
conv2d_668 (Conv2D)             (None, 14, 14, 192)  208896      block17_6_ac[0][0]               
__________________________________________________________________________________________________
conv2d_671 (Conv2D)             (None, 14, 14, 192)  215040      activation_604[0][0]             
__________________________________________________________________________________________________
batch_normalization_662 (BatchN (None, 14, 14, 192)  576         conv2d_668[0][0]                 
__________________________________________________________________________________________________
batch_normalization_665 (BatchN (None, 14, 14, 192)  576         conv2d_671[0][0]                 
__________________________________________________________________________________________________
activation_602 (Activation)     (None, 14, 14, 192)  0           batch_normalization_662[0][0]    
__________________________________________________________________________________________________
activation_605 (Activation)     (None, 14, 14, 192)  0           batch_normalization_665[0][0]    
__________________________________________________________________________________________________
block17_7_mixed (Concatenate)   (None, 14, 14, 384)  0           activation_602[0][0]             
                                                                 activation_605[0][0]             
__________________________________________________________________________________________________
block17_7_conv (Conv2D)         (None, 14, 14, 1088) 418880      block17_7_mixed[0][0]            
__________________________________________________________________________________________________
block17_7 (Lambda)              (None, 14, 14, 1088) 0           block17_6_ac[0][0]               
                                                                 block17_7_conv[0][0]             
__________________________________________________________________________________________________
block17_7_ac (Activation)       (None, 14, 14, 1088) 0           block17_7[0][0]                  
__________________________________________________________________________________________________
conv2d_673 (Conv2D)             (None, 14, 14, 128)  139264      block17_7_ac[0][0]               
__________________________________________________________________________________________________
batch_normalization_667 (BatchN (None, 14, 14, 128)  384         conv2d_673[0][0]                 
__________________________________________________________________________________________________
activation_607 (Activation)     (None, 14, 14, 128)  0           batch_normalization_667[0][0]    
__________________________________________________________________________________________________
conv2d_674 (Conv2D)             (None, 14, 14, 160)  143360      activation_607[0][0]             
__________________________________________________________________________________________________
batch_normalization_668 (BatchN (None, 14, 14, 160)  480         conv2d_674[0][0]                 
__________________________________________________________________________________________________
activation_608 (Activation)     (None, 14, 14, 160)  0           batch_normalization_668[0][0]    
__________________________________________________________________________________________________
conv2d_672 (Conv2D)             (None, 14, 14, 192)  208896      block17_7_ac[0][0]               
__________________________________________________________________________________________________
conv2d_675 (Conv2D)             (None, 14, 14, 192)  215040      activation_608[0][0]             
__________________________________________________________________________________________________
batch_normalization_666 (BatchN (None, 14, 14, 192)  576         conv2d_672[0][0]                 
__________________________________________________________________________________________________
batch_normalization_669 (BatchN (None, 14, 14, 192)  576         conv2d_675[0][0]                 
__________________________________________________________________________________________________
activation_606 (Activation)     (None, 14, 14, 192)  0           batch_normalization_666[0][0]    
__________________________________________________________________________________________________
activation_609 (Activation)     (None, 14, 14, 192)  0           batch_normalization_669[0][0]    
__________________________________________________________________________________________________
block17_8_mixed (Concatenate)   (None, 14, 14, 384)  0           activation_606[0][0]             
                                                                 activation_609[0][0]             
__________________________________________________________________________________________________
block17_8_conv (Conv2D)         (None, 14, 14, 1088) 418880      block17_8_mixed[0][0]            
__________________________________________________________________________________________________
block17_8 (Lambda)              (None, 14, 14, 1088) 0           block17_7_ac[0][0]               
                                                                 block17_8_conv[0][0]             
__________________________________________________________________________________________________
block17_8_ac (Activation)       (None, 14, 14, 1088) 0           block17_8[0][0]                  
__________________________________________________________________________________________________
conv2d_677 (Conv2D)             (None, 14, 14, 128)  139264      block17_8_ac[0][0]               
__________________________________________________________________________________________________
batch_normalization_671 (BatchN (None, 14, 14, 128)  384         conv2d_677[0][0]                 
__________________________________________________________________________________________________
activation_611 (Activation)     (None, 14, 14, 128)  0           batch_normalization_671[0][0]    
__________________________________________________________________________________________________
conv2d_678 (Conv2D)             (None, 14, 14, 160)  143360      activation_611[0][0]             
__________________________________________________________________________________________________
batch_normalization_672 (BatchN (None, 14, 14, 160)  480         conv2d_678[0][0]                 
__________________________________________________________________________________________________
activation_612 (Activation)     (None, 14, 14, 160)  0           batch_normalization_672[0][0]    
__________________________________________________________________________________________________
conv2d_676 (Conv2D)             (None, 14, 14, 192)  208896      block17_8_ac[0][0]               
__________________________________________________________________________________________________
conv2d_679 (Conv2D)             (None, 14, 14, 192)  215040      activation_612[0][0]             
__________________________________________________________________________________________________
batch_normalization_670 (BatchN (None, 14, 14, 192)  576         conv2d_676[0][0]                 
__________________________________________________________________________________________________
batch_normalization_673 (BatchN (None, 14, 14, 192)  576         conv2d_679[0][0]                 
__________________________________________________________________________________________________
activation_610 (Activation)     (None, 14, 14, 192)  0           batch_normalization_670[0][0]    
__________________________________________________________________________________________________
activation_613 (Activation)     (None, 14, 14, 192)  0           batch_normalization_673[0][0]    
__________________________________________________________________________________________________
block17_9_mixed (Concatenate)   (None, 14, 14, 384)  0           activation_610[0][0]             
                                                                 activation_613[0][0]             
__________________________________________________________________________________________________
block17_9_conv (Conv2D)         (None, 14, 14, 1088) 418880      block17_9_mixed[0][0]            
__________________________________________________________________________________________________
block17_9 (Lambda)              (None, 14, 14, 1088) 0           block17_8_ac[0][0]               
                                                                 block17_9_conv[0][0]             
__________________________________________________________________________________________________
block17_9_ac (Activation)       (None, 14, 14, 1088) 0           block17_9[0][0]                  
__________________________________________________________________________________________________
conv2d_681 (Conv2D)             (None, 14, 14, 128)  139264      block17_9_ac[0][0]               
__________________________________________________________________________________________________
batch_normalization_675 (BatchN (None, 14, 14, 128)  384         conv2d_681[0][0]                 
__________________________________________________________________________________________________
activation_615 (Activation)     (None, 14, 14, 128)  0           batch_normalization_675[0][0]    
__________________________________________________________________________________________________
conv2d_682 (Conv2D)             (None, 14, 14, 160)  143360      activation_615[0][0]             
__________________________________________________________________________________________________
batch_normalization_676 (BatchN (None, 14, 14, 160)  480         conv2d_682[0][0]                 
__________________________________________________________________________________________________
activation_616 (Activation)     (None, 14, 14, 160)  0           batch_normalization_676[0][0]    
__________________________________________________________________________________________________
conv2d_680 (Conv2D)             (None, 14, 14, 192)  208896      block17_9_ac[0][0]               
__________________________________________________________________________________________________
conv2d_683 (Conv2D)             (None, 14, 14, 192)  215040      activation_616[0][0]             
__________________________________________________________________________________________________
batch_normalization_674 (BatchN (None, 14, 14, 192)  576         conv2d_680[0][0]                 
__________________________________________________________________________________________________
batch_normalization_677 (BatchN (None, 14, 14, 192)  576         conv2d_683[0][0]                 
__________________________________________________________________________________________________
activation_614 (Activation)     (None, 14, 14, 192)  0           batch_normalization_674[0][0]    
__________________________________________________________________________________________________
activation_617 (Activation)     (None, 14, 14, 192)  0           batch_normalization_677[0][0]    
__________________________________________________________________________________________________
block17_10_mixed (Concatenate)  (None, 14, 14, 384)  0           activation_614[0][0]             
                                                                 activation_617[0][0]             
__________________________________________________________________________________________________
block17_10_conv (Conv2D)        (None, 14, 14, 1088) 418880      block17_10_mixed[0][0]           
__________________________________________________________________________________________________
block17_10 (Lambda)             (None, 14, 14, 1088) 0           block17_9_ac[0][0]               
                                                                 block17_10_conv[0][0]            
__________________________________________________________________________________________________
block17_10_ac (Activation)      (None, 14, 14, 1088) 0           block17_10[0][0]                 
__________________________________________________________________________________________________
conv2d_685 (Conv2D)             (None, 14, 14, 128)  139264      block17_10_ac[0][0]              
__________________________________________________________________________________________________
batch_normalization_679 (BatchN (None, 14, 14, 128)  384         conv2d_685[0][0]                 
__________________________________________________________________________________________________
activation_619 (Activation)     (None, 14, 14, 128)  0           batch_normalization_679[0][0]    
__________________________________________________________________________________________________
conv2d_686 (Conv2D)             (None, 14, 14, 160)  143360      activation_619[0][0]             
__________________________________________________________________________________________________
batch_normalization_680 (BatchN (None, 14, 14, 160)  480         conv2d_686[0][0]                 
__________________________________________________________________________________________________
activation_620 (Activation)     (None, 14, 14, 160)  0           batch_normalization_680[0][0]    
__________________________________________________________________________________________________
conv2d_684 (Conv2D)             (None, 14, 14, 192)  208896      block17_10_ac[0][0]              
__________________________________________________________________________________________________
conv2d_687 (Conv2D)             (None, 14, 14, 192)  215040      activation_620[0][0]             
__________________________________________________________________________________________________
batch_normalization_678 (BatchN (None, 14, 14, 192)  576         conv2d_684[0][0]                 
__________________________________________________________________________________________________
batch_normalization_681 (BatchN (None, 14, 14, 192)  576         conv2d_687[0][0]                 
__________________________________________________________________________________________________
activation_618 (Activation)     (None, 14, 14, 192)  0           batch_normalization_678[0][0]    
__________________________________________________________________________________________________
activation_621 (Activation)     (None, 14, 14, 192)  0           batch_normalization_681[0][0]    
__________________________________________________________________________________________________
block17_11_mixed (Concatenate)  (None, 14, 14, 384)  0           activation_618[0][0]             
                                                                 activation_621[0][0]             
__________________________________________________________________________________________________
block17_11_conv (Conv2D)        (None, 14, 14, 1088) 418880      block17_11_mixed[0][0]           
__________________________________________________________________________________________________
block17_11 (Lambda)             (None, 14, 14, 1088) 0           block17_10_ac[0][0]              
                                                                 block17_11_conv[0][0]            
__________________________________________________________________________________________________
block17_11_ac (Activation)      (None, 14, 14, 1088) 0           block17_11[0][0]                 
__________________________________________________________________________________________________
conv2d_689 (Conv2D)             (None, 14, 14, 128)  139264      block17_11_ac[0][0]              
__________________________________________________________________________________________________
batch_normalization_683 (BatchN (None, 14, 14, 128)  384         conv2d_689[0][0]                 
__________________________________________________________________________________________________
activation_623 (Activation)     (None, 14, 14, 128)  0           batch_normalization_683[0][0]    
__________________________________________________________________________________________________
conv2d_690 (Conv2D)             (None, 14, 14, 160)  143360      activation_623[0][0]             
__________________________________________________________________________________________________
batch_normalization_684 (BatchN (None, 14, 14, 160)  480         conv2d_690[0][0]                 
__________________________________________________________________________________________________
activation_624 (Activation)     (None, 14, 14, 160)  0           batch_normalization_684[0][0]    
__________________________________________________________________________________________________
conv2d_688 (Conv2D)             (None, 14, 14, 192)  208896      block17_11_ac[0][0]              
__________________________________________________________________________________________________
conv2d_691 (Conv2D)             (None, 14, 14, 192)  215040      activation_624[0][0]             
__________________________________________________________________________________________________
batch_normalization_682 (BatchN (None, 14, 14, 192)  576         conv2d_688[0][0]                 
__________________________________________________________________________________________________
batch_normalization_685 (BatchN (None, 14, 14, 192)  576         conv2d_691[0][0]                 
__________________________________________________________________________________________________
activation_622 (Activation)     (None, 14, 14, 192)  0           batch_normalization_682[0][0]    
__________________________________________________________________________________________________
activation_625 (Activation)     (None, 14, 14, 192)  0           batch_normalization_685[0][0]    
__________________________________________________________________________________________________
block17_12_mixed (Concatenate)  (None, 14, 14, 384)  0           activation_622[0][0]             
                                                                 activation_625[0][0]             
__________________________________________________________________________________________________
block17_12_conv (Conv2D)        (None, 14, 14, 1088) 418880      block17_12_mixed[0][0]           
__________________________________________________________________________________________________
block17_12 (Lambda)             (None, 14, 14, 1088) 0           block17_11_ac[0][0]              
                                                                 block17_12_conv[0][0]            
__________________________________________________________________________________________________
block17_12_ac (Activation)      (None, 14, 14, 1088) 0           block17_12[0][0]                 
__________________________________________________________________________________________________
conv2d_693 (Conv2D)             (None, 14, 14, 128)  139264      block17_12_ac[0][0]              
__________________________________________________________________________________________________
batch_normalization_687 (BatchN (None, 14, 14, 128)  384         conv2d_693[0][0]                 
__________________________________________________________________________________________________
activation_627 (Activation)     (None, 14, 14, 128)  0           batch_normalization_687[0][0]    
__________________________________________________________________________________________________
conv2d_694 (Conv2D)             (None, 14, 14, 160)  143360      activation_627[0][0]             
__________________________________________________________________________________________________
batch_normalization_688 (BatchN (None, 14, 14, 160)  480         conv2d_694[0][0]                 
__________________________________________________________________________________________________
activation_628 (Activation)     (None, 14, 14, 160)  0           batch_normalization_688[0][0]    
__________________________________________________________________________________________________
conv2d_692 (Conv2D)             (None, 14, 14, 192)  208896      block17_12_ac[0][0]              
__________________________________________________________________________________________________
conv2d_695 (Conv2D)             (None, 14, 14, 192)  215040      activation_628[0][0]             
__________________________________________________________________________________________________
batch_normalization_686 (BatchN (None, 14, 14, 192)  576         conv2d_692[0][0]                 
__________________________________________________________________________________________________
batch_normalization_689 (BatchN (None, 14, 14, 192)  576         conv2d_695[0][0]                 
__________________________________________________________________________________________________
activation_626 (Activation)     (None, 14, 14, 192)  0           batch_normalization_686[0][0]    
__________________________________________________________________________________________________
activation_629 (Activation)     (None, 14, 14, 192)  0           batch_normalization_689[0][0]    
__________________________________________________________________________________________________
block17_13_mixed (Concatenate)  (None, 14, 14, 384)  0           activation_626[0][0]             
                                                                 activation_629[0][0]             
__________________________________________________________________________________________________
block17_13_conv (Conv2D)        (None, 14, 14, 1088) 418880      block17_13_mixed[0][0]           
__________________________________________________________________________________________________
block17_13 (Lambda)             (None, 14, 14, 1088) 0           block17_12_ac[0][0]              
                                                                 block17_13_conv[0][0]            
__________________________________________________________________________________________________
block17_13_ac (Activation)      (None, 14, 14, 1088) 0           block17_13[0][0]                 
__________________________________________________________________________________________________
conv2d_697 (Conv2D)             (None, 14, 14, 128)  139264      block17_13_ac[0][0]              
__________________________________________________________________________________________________
batch_normalization_691 (BatchN (None, 14, 14, 128)  384         conv2d_697[0][0]                 
__________________________________________________________________________________________________
activation_631 (Activation)     (None, 14, 14, 128)  0           batch_normalization_691[0][0]    
__________________________________________________________________________________________________
conv2d_698 (Conv2D)             (None, 14, 14, 160)  143360      activation_631[0][0]             
__________________________________________________________________________________________________
batch_normalization_692 (BatchN (None, 14, 14, 160)  480         conv2d_698[0][0]                 
__________________________________________________________________________________________________
activation_632 (Activation)     (None, 14, 14, 160)  0           batch_normalization_692[0][0]    
__________________________________________________________________________________________________
conv2d_696 (Conv2D)             (None, 14, 14, 192)  208896      block17_13_ac[0][0]              
__________________________________________________________________________________________________
conv2d_699 (Conv2D)             (None, 14, 14, 192)  215040      activation_632[0][0]             
__________________________________________________________________________________________________
batch_normalization_690 (BatchN (None, 14, 14, 192)  576         conv2d_696[0][0]                 
__________________________________________________________________________________________________
batch_normalization_693 (BatchN (None, 14, 14, 192)  576         conv2d_699[0][0]                 
__________________________________________________________________________________________________
activation_630 (Activation)     (None, 14, 14, 192)  0           batch_normalization_690[0][0]    
__________________________________________________________________________________________________
activation_633 (Activation)     (None, 14, 14, 192)  0           batch_normalization_693[0][0]    
__________________________________________________________________________________________________
block17_14_mixed (Concatenate)  (None, 14, 14, 384)  0           activation_630[0][0]             
                                                                 activation_633[0][0]             
__________________________________________________________________________________________________
block17_14_conv (Conv2D)        (None, 14, 14, 1088) 418880      block17_14_mixed[0][0]           
__________________________________________________________________________________________________
block17_14 (Lambda)             (None, 14, 14, 1088) 0           block17_13_ac[0][0]              
                                                                 block17_14_conv[0][0]            
__________________________________________________________________________________________________
block17_14_ac (Activation)      (None, 14, 14, 1088) 0           block17_14[0][0]                 
__________________________________________________________________________________________________
conv2d_701 (Conv2D)             (None, 14, 14, 128)  139264      block17_14_ac[0][0]              
__________________________________________________________________________________________________
batch_normalization_695 (BatchN (None, 14, 14, 128)  384         conv2d_701[0][0]                 
__________________________________________________________________________________________________
activation_635 (Activation)     (None, 14, 14, 128)  0           batch_normalization_695[0][0]    
__________________________________________________________________________________________________
conv2d_702 (Conv2D)             (None, 14, 14, 160)  143360      activation_635[0][0]             
__________________________________________________________________________________________________
batch_normalization_696 (BatchN (None, 14, 14, 160)  480         conv2d_702[0][0]                 
__________________________________________________________________________________________________
activation_636 (Activation)     (None, 14, 14, 160)  0           batch_normalization_696[0][0]    
__________________________________________________________________________________________________
conv2d_700 (Conv2D)             (None, 14, 14, 192)  208896      block17_14_ac[0][0]              
__________________________________________________________________________________________________
conv2d_703 (Conv2D)             (None, 14, 14, 192)  215040      activation_636[0][0]             
__________________________________________________________________________________________________
batch_normalization_694 (BatchN (None, 14, 14, 192)  576         conv2d_700[0][0]                 
__________________________________________________________________________________________________
batch_normalization_697 (BatchN (None, 14, 14, 192)  576         conv2d_703[0][0]                 
__________________________________________________________________________________________________
activation_634 (Activation)     (None, 14, 14, 192)  0           batch_normalization_694[0][0]    
__________________________________________________________________________________________________
activation_637 (Activation)     (None, 14, 14, 192)  0           batch_normalization_697[0][0]    
__________________________________________________________________________________________________
block17_15_mixed (Concatenate)  (None, 14, 14, 384)  0           activation_634[0][0]             
                                                                 activation_637[0][0]             
__________________________________________________________________________________________________
block17_15_conv (Conv2D)        (None, 14, 14, 1088) 418880      block17_15_mixed[0][0]           
__________________________________________________________________________________________________
block17_15 (Lambda)             (None, 14, 14, 1088) 0           block17_14_ac[0][0]              
                                                                 block17_15_conv[0][0]            
__________________________________________________________________________________________________
block17_15_ac (Activation)      (None, 14, 14, 1088) 0           block17_15[0][0]                 
__________________________________________________________________________________________________
conv2d_705 (Conv2D)             (None, 14, 14, 128)  139264      block17_15_ac[0][0]              
__________________________________________________________________________________________________
batch_normalization_699 (BatchN (None, 14, 14, 128)  384         conv2d_705[0][0]                 
__________________________________________________________________________________________________
activation_639 (Activation)     (None, 14, 14, 128)  0           batch_normalization_699[0][0]    
__________________________________________________________________________________________________
conv2d_706 (Conv2D)             (None, 14, 14, 160)  143360      activation_639[0][0]             
__________________________________________________________________________________________________
batch_normalization_700 (BatchN (None, 14, 14, 160)  480         conv2d_706[0][0]                 
__________________________________________________________________________________________________
activation_640 (Activation)     (None, 14, 14, 160)  0           batch_normalization_700[0][0]    
__________________________________________________________________________________________________
conv2d_704 (Conv2D)             (None, 14, 14, 192)  208896      block17_15_ac[0][0]              
__________________________________________________________________________________________________
conv2d_707 (Conv2D)             (None, 14, 14, 192)  215040      activation_640[0][0]             
__________________________________________________________________________________________________
batch_normalization_698 (BatchN (None, 14, 14, 192)  576         conv2d_704[0][0]                 
__________________________________________________________________________________________________
batch_normalization_701 (BatchN (None, 14, 14, 192)  576         conv2d_707[0][0]                 
__________________________________________________________________________________________________
activation_638 (Activation)     (None, 14, 14, 192)  0           batch_normalization_698[0][0]    
__________________________________________________________________________________________________
activation_641 (Activation)     (None, 14, 14, 192)  0           batch_normalization_701[0][0]    
__________________________________________________________________________________________________
block17_16_mixed (Concatenate)  (None, 14, 14, 384)  0           activation_638[0][0]             
                                                                 activation_641[0][0]             
__________________________________________________________________________________________________
block17_16_conv (Conv2D)        (None, 14, 14, 1088) 418880      block17_16_mixed[0][0]           
__________________________________________________________________________________________________
block17_16 (Lambda)             (None, 14, 14, 1088) 0           block17_15_ac[0][0]              
                                                                 block17_16_conv[0][0]            
__________________________________________________________________________________________________
block17_16_ac (Activation)      (None, 14, 14, 1088) 0           block17_16[0][0]                 
__________________________________________________________________________________________________
conv2d_709 (Conv2D)             (None, 14, 14, 128)  139264      block17_16_ac[0][0]              
__________________________________________________________________________________________________
batch_normalization_703 (BatchN (None, 14, 14, 128)  384         conv2d_709[0][0]                 
__________________________________________________________________________________________________
activation_643 (Activation)     (None, 14, 14, 128)  0           batch_normalization_703[0][0]    
__________________________________________________________________________________________________
conv2d_710 (Conv2D)             (None, 14, 14, 160)  143360      activation_643[0][0]             
__________________________________________________________________________________________________
batch_normalization_704 (BatchN (None, 14, 14, 160)  480         conv2d_710[0][0]                 
__________________________________________________________________________________________________
activation_644 (Activation)     (None, 14, 14, 160)  0           batch_normalization_704[0][0]    
__________________________________________________________________________________________________
conv2d_708 (Conv2D)             (None, 14, 14, 192)  208896      block17_16_ac[0][0]              
__________________________________________________________________________________________________
conv2d_711 (Conv2D)             (None, 14, 14, 192)  215040      activation_644[0][0]             
__________________________________________________________________________________________________
batch_normalization_702 (BatchN (None, 14, 14, 192)  576         conv2d_708[0][0]                 
__________________________________________________________________________________________________
batch_normalization_705 (BatchN (None, 14, 14, 192)  576         conv2d_711[0][0]                 
__________________________________________________________________________________________________
activation_642 (Activation)     (None, 14, 14, 192)  0           batch_normalization_702[0][0]    
__________________________________________________________________________________________________
activation_645 (Activation)     (None, 14, 14, 192)  0           batch_normalization_705[0][0]    
__________________________________________________________________________________________________
block17_17_mixed (Concatenate)  (None, 14, 14, 384)  0           activation_642[0][0]             
                                                                 activation_645[0][0]             
__________________________________________________________________________________________________
block17_17_conv (Conv2D)        (None, 14, 14, 1088) 418880      block17_17_mixed[0][0]           
__________________________________________________________________________________________________
block17_17 (Lambda)             (None, 14, 14, 1088) 0           block17_16_ac[0][0]              
                                                                 block17_17_conv[0][0]            
__________________________________________________________________________________________________
block17_17_ac (Activation)      (None, 14, 14, 1088) 0           block17_17[0][0]                 
__________________________________________________________________________________________________
conv2d_713 (Conv2D)             (None, 14, 14, 128)  139264      block17_17_ac[0][0]              
__________________________________________________________________________________________________
batch_normalization_707 (BatchN (None, 14, 14, 128)  384         conv2d_713[0][0]                 
__________________________________________________________________________________________________
activation_647 (Activation)     (None, 14, 14, 128)  0           batch_normalization_707[0][0]    
__________________________________________________________________________________________________
conv2d_714 (Conv2D)             (None, 14, 14, 160)  143360      activation_647[0][0]             
__________________________________________________________________________________________________
batch_normalization_708 (BatchN (None, 14, 14, 160)  480         conv2d_714[0][0]                 
__________________________________________________________________________________________________
activation_648 (Activation)     (None, 14, 14, 160)  0           batch_normalization_708[0][0]    
__________________________________________________________________________________________________
conv2d_712 (Conv2D)             (None, 14, 14, 192)  208896      block17_17_ac[0][0]              
__________________________________________________________________________________________________
conv2d_715 (Conv2D)             (None, 14, 14, 192)  215040      activation_648[0][0]             
__________________________________________________________________________________________________
batch_normalization_706 (BatchN (None, 14, 14, 192)  576         conv2d_712[0][0]                 
__________________________________________________________________________________________________
batch_normalization_709 (BatchN (None, 14, 14, 192)  576         conv2d_715[0][0]                 
__________________________________________________________________________________________________
activation_646 (Activation)     (None, 14, 14, 192)  0           batch_normalization_706[0][0]    
__________________________________________________________________________________________________
activation_649 (Activation)     (None, 14, 14, 192)  0           batch_normalization_709[0][0]    
__________________________________________________________________________________________________
block17_18_mixed (Concatenate)  (None, 14, 14, 384)  0           activation_646[0][0]             
                                                                 activation_649[0][0]             
__________________________________________________________________________________________________
block17_18_conv (Conv2D)        (None, 14, 14, 1088) 418880      block17_18_mixed[0][0]           
__________________________________________________________________________________________________
block17_18 (Lambda)             (None, 14, 14, 1088) 0           block17_17_ac[0][0]              
                                                                 block17_18_conv[0][0]            
__________________________________________________________________________________________________
block17_18_ac (Activation)      (None, 14, 14, 1088) 0           block17_18[0][0]                 
__________________________________________________________________________________________________
conv2d_717 (Conv2D)             (None, 14, 14, 128)  139264      block17_18_ac[0][0]              
__________________________________________________________________________________________________
batch_normalization_711 (BatchN (None, 14, 14, 128)  384         conv2d_717[0][0]                 
__________________________________________________________________________________________________
activation_651 (Activation)     (None, 14, 14, 128)  0           batch_normalization_711[0][0]    
__________________________________________________________________________________________________
conv2d_718 (Conv2D)             (None, 14, 14, 160)  143360      activation_651[0][0]             
__________________________________________________________________________________________________
batch_normalization_712 (BatchN (None, 14, 14, 160)  480         conv2d_718[0][0]                 
__________________________________________________________________________________________________
activation_652 (Activation)     (None, 14, 14, 160)  0           batch_normalization_712[0][0]    
__________________________________________________________________________________________________
conv2d_716 (Conv2D)             (None, 14, 14, 192)  208896      block17_18_ac[0][0]              
__________________________________________________________________________________________________
conv2d_719 (Conv2D)             (None, 14, 14, 192)  215040      activation_652[0][0]             
__________________________________________________________________________________________________
batch_normalization_710 (BatchN (None, 14, 14, 192)  576         conv2d_716[0][0]                 
__________________________________________________________________________________________________
batch_normalization_713 (BatchN (None, 14, 14, 192)  576         conv2d_719[0][0]                 
__________________________________________________________________________________________________
activation_650 (Activation)     (None, 14, 14, 192)  0           batch_normalization_710[0][0]    
__________________________________________________________________________________________________
activation_653 (Activation)     (None, 14, 14, 192)  0           batch_normalization_713[0][0]    
__________________________________________________________________________________________________
block17_19_mixed (Concatenate)  (None, 14, 14, 384)  0           activation_650[0][0]             
                                                                 activation_653[0][0]             
__________________________________________________________________________________________________
block17_19_conv (Conv2D)        (None, 14, 14, 1088) 418880      block17_19_mixed[0][0]           
__________________________________________________________________________________________________
block17_19 (Lambda)             (None, 14, 14, 1088) 0           block17_18_ac[0][0]              
                                                                 block17_19_conv[0][0]            
__________________________________________________________________________________________________
block17_19_ac (Activation)      (None, 14, 14, 1088) 0           block17_19[0][0]                 
__________________________________________________________________________________________________
conv2d_721 (Conv2D)             (None, 14, 14, 128)  139264      block17_19_ac[0][0]              
__________________________________________________________________________________________________
batch_normalization_715 (BatchN (None, 14, 14, 128)  384         conv2d_721[0][0]                 
__________________________________________________________________________________________________
activation_655 (Activation)     (None, 14, 14, 128)  0           batch_normalization_715[0][0]    
__________________________________________________________________________________________________
conv2d_722 (Conv2D)             (None, 14, 14, 160)  143360      activation_655[0][0]             
__________________________________________________________________________________________________
batch_normalization_716 (BatchN (None, 14, 14, 160)  480         conv2d_722[0][0]                 
__________________________________________________________________________________________________
activation_656 (Activation)     (None, 14, 14, 160)  0           batch_normalization_716[0][0]    
__________________________________________________________________________________________________
conv2d_720 (Conv2D)             (None, 14, 14, 192)  208896      block17_19_ac[0][0]              
__________________________________________________________________________________________________
conv2d_723 (Conv2D)             (None, 14, 14, 192)  215040      activation_656[0][0]             
__________________________________________________________________________________________________
batch_normalization_714 (BatchN (None, 14, 14, 192)  576         conv2d_720[0][0]                 
__________________________________________________________________________________________________
batch_normalization_717 (BatchN (None, 14, 14, 192)  576         conv2d_723[0][0]                 
__________________________________________________________________________________________________
activation_654 (Activation)     (None, 14, 14, 192)  0           batch_normalization_714[0][0]    
__________________________________________________________________________________________________
activation_657 (Activation)     (None, 14, 14, 192)  0           batch_normalization_717[0][0]    
__________________________________________________________________________________________________
block17_20_mixed (Concatenate)  (None, 14, 14, 384)  0           activation_654[0][0]             
                                                                 activation_657[0][0]             
__________________________________________________________________________________________________
block17_20_conv (Conv2D)        (None, 14, 14, 1088) 418880      block17_20_mixed[0][0]           
__________________________________________________________________________________________________
block17_20 (Lambda)             (None, 14, 14, 1088) 0           block17_19_ac[0][0]              
                                                                 block17_20_conv[0][0]            
__________________________________________________________________________________________________
block17_20_ac (Activation)      (None, 14, 14, 1088) 0           block17_20[0][0]                 
__________________________________________________________________________________________________
conv2d_728 (Conv2D)             (None, 14, 14, 256)  278528      block17_20_ac[0][0]              
__________________________________________________________________________________________________
batch_normalization_722 (BatchN (None, 14, 14, 256)  768         conv2d_728[0][0]                 
__________________________________________________________________________________________________
activation_662 (Activation)     (None, 14, 14, 256)  0           batch_normalization_722[0][0]    
__________________________________________________________________________________________________
conv2d_724 (Conv2D)             (None, 14, 14, 256)  278528      block17_20_ac[0][0]              
__________________________________________________________________________________________________
conv2d_726 (Conv2D)             (None, 14, 14, 256)  278528      block17_20_ac[0][0]              
__________________________________________________________________________________________________
conv2d_729 (Conv2D)             (None, 14, 14, 288)  663552      activation_662[0][0]             
__________________________________________________________________________________________________
batch_normalization_718 (BatchN (None, 14, 14, 256)  768         conv2d_724[0][0]                 
__________________________________________________________________________________________________
batch_normalization_720 (BatchN (None, 14, 14, 256)  768         conv2d_726[0][0]                 
__________________________________________________________________________________________________
batch_normalization_723 (BatchN (None, 14, 14, 288)  864         conv2d_729[0][0]                 
__________________________________________________________________________________________________
activation_658 (Activation)     (None, 14, 14, 256)  0           batch_normalization_718[0][0]    
__________________________________________________________________________________________________
activation_660 (Activation)     (None, 14, 14, 256)  0           batch_normalization_720[0][0]    
__________________________________________________________________________________________________
activation_663 (Activation)     (None, 14, 14, 288)  0           batch_normalization_723[0][0]    
__________________________________________________________________________________________________
conv2d_725 (Conv2D)             (None, 6, 6, 384)    884736      activation_658[0][0]             
__________________________________________________________________________________________________
conv2d_727 (Conv2D)             (None, 6, 6, 288)    663552      activation_660[0][0]             
__________________________________________________________________________________________________
conv2d_730 (Conv2D)             (None, 6, 6, 320)    829440      activation_663[0][0]             
__________________________________________________________________________________________________
batch_normalization_719 (BatchN (None, 6, 6, 384)    1152        conv2d_725[0][0]                 
__________________________________________________________________________________________________
batch_normalization_721 (BatchN (None, 6, 6, 288)    864         conv2d_727[0][0]                 
__________________________________________________________________________________________________
batch_normalization_724 (BatchN (None, 6, 6, 320)    960         conv2d_730[0][0]                 
__________________________________________________________________________________________________
activation_659 (Activation)     (None, 6, 6, 384)    0           batch_normalization_719[0][0]    
__________________________________________________________________________________________________
activation_661 (Activation)     (None, 6, 6, 288)    0           batch_normalization_721[0][0]    
__________________________________________________________________________________________________
activation_664 (Activation)     (None, 6, 6, 320)    0           batch_normalization_724[0][0]    
__________________________________________________________________________________________________
max_pooling2d_41 (MaxPooling2D) (None, 6, 6, 1088)   0           block17_20_ac[0][0]              
__________________________________________________________________________________________________
mixed_7a (Concatenate)          (None, 6, 6, 2080)   0           activation_659[0][0]             
                                                                 activation_661[0][0]             
                                                                 activation_664[0][0]             
                                                                 max_pooling2d_41[0][0]           
__________________________________________________________________________________________________
conv2d_732 (Conv2D)             (None, 6, 6, 192)    399360      mixed_7a[0][0]                   
__________________________________________________________________________________________________
batch_normalization_726 (BatchN (None, 6, 6, 192)    576         conv2d_732[0][0]                 
__________________________________________________________________________________________________
activation_666 (Activation)     (None, 6, 6, 192)    0           batch_normalization_726[0][0]    
__________________________________________________________________________________________________
conv2d_733 (Conv2D)             (None, 6, 6, 224)    129024      activation_666[0][0]             
__________________________________________________________________________________________________
batch_normalization_727 (BatchN (None, 6, 6, 224)    672         conv2d_733[0][0]                 
__________________________________________________________________________________________________
activation_667 (Activation)     (None, 6, 6, 224)    0           batch_normalization_727[0][0]    
__________________________________________________________________________________________________
conv2d_731 (Conv2D)             (None, 6, 6, 192)    399360      mixed_7a[0][0]                   
__________________________________________________________________________________________________
conv2d_734 (Conv2D)             (None, 6, 6, 256)    172032      activation_667[0][0]             
__________________________________________________________________________________________________
batch_normalization_725 (BatchN (None, 6, 6, 192)    576         conv2d_731[0][0]                 
__________________________________________________________________________________________________
batch_normalization_728 (BatchN (None, 6, 6, 256)    768         conv2d_734[0][0]                 
__________________________________________________________________________________________________
activation_665 (Activation)     (None, 6, 6, 192)    0           batch_normalization_725[0][0]    
__________________________________________________________________________________________________
activation_668 (Activation)     (None, 6, 6, 256)    0           batch_normalization_728[0][0]    
__________________________________________________________________________________________________
block8_1_mixed (Concatenate)    (None, 6, 6, 448)    0           activation_665[0][0]             
                                                                 activation_668[0][0]             
__________________________________________________________________________________________________
block8_1_conv (Conv2D)          (None, 6, 6, 2080)   933920      block8_1_mixed[0][0]             
__________________________________________________________________________________________________
block8_1 (Lambda)               (None, 6, 6, 2080)   0           mixed_7a[0][0]                   
                                                                 block8_1_conv[0][0]              
__________________________________________________________________________________________________
block8_1_ac (Activation)        (None, 6, 6, 2080)   0           block8_1[0][0]                   
__________________________________________________________________________________________________
conv2d_736 (Conv2D)             (None, 6, 6, 192)    399360      block8_1_ac[0][0]                
__________________________________________________________________________________________________
batch_normalization_730 (BatchN (None, 6, 6, 192)    576         conv2d_736[0][0]                 
__________________________________________________________________________________________________
activation_670 (Activation)     (None, 6, 6, 192)    0           batch_normalization_730[0][0]    
__________________________________________________________________________________________________
conv2d_737 (Conv2D)             (None, 6, 6, 224)    129024      activation_670[0][0]             
__________________________________________________________________________________________________
batch_normalization_731 (BatchN (None, 6, 6, 224)    672         conv2d_737[0][0]                 
__________________________________________________________________________________________________
activation_671 (Activation)     (None, 6, 6, 224)    0           batch_normalization_731[0][0]    
__________________________________________________________________________________________________
conv2d_735 (Conv2D)             (None, 6, 6, 192)    399360      block8_1_ac[0][0]                
__________________________________________________________________________________________________
conv2d_738 (Conv2D)             (None, 6, 6, 256)    172032      activation_671[0][0]             
__________________________________________________________________________________________________
batch_normalization_729 (BatchN (None, 6, 6, 192)    576         conv2d_735[0][0]                 
__________________________________________________________________________________________________
batch_normalization_732 (BatchN (None, 6, 6, 256)    768         conv2d_738[0][0]                 
__________________________________________________________________________________________________
activation_669 (Activation)     (None, 6, 6, 192)    0           batch_normalization_729[0][0]    
__________________________________________________________________________________________________
activation_672 (Activation)     (None, 6, 6, 256)    0           batch_normalization_732[0][0]    
__________________________________________________________________________________________________
block8_2_mixed (Concatenate)    (None, 6, 6, 448)    0           activation_669[0][0]             
                                                                 activation_672[0][0]             
__________________________________________________________________________________________________
block8_2_conv (Conv2D)          (None, 6, 6, 2080)   933920      block8_2_mixed[0][0]             
__________________________________________________________________________________________________
block8_2 (Lambda)               (None, 6, 6, 2080)   0           block8_1_ac[0][0]                
                                                                 block8_2_conv[0][0]              
__________________________________________________________________________________________________
block8_2_ac (Activation)        (None, 6, 6, 2080)   0           block8_2[0][0]                   
__________________________________________________________________________________________________
conv2d_740 (Conv2D)             (None, 6, 6, 192)    399360      block8_2_ac[0][0]                
__________________________________________________________________________________________________
batch_normalization_734 (BatchN (None, 6, 6, 192)    576         conv2d_740[0][0]                 
__________________________________________________________________________________________________
activation_674 (Activation)     (None, 6, 6, 192)    0           batch_normalization_734[0][0]    
__________________________________________________________________________________________________
conv2d_741 (Conv2D)             (None, 6, 6, 224)    129024      activation_674[0][0]             
__________________________________________________________________________________________________
batch_normalization_735 (BatchN (None, 6, 6, 224)    672         conv2d_741[0][0]                 
__________________________________________________________________________________________________
activation_675 (Activation)     (None, 6, 6, 224)    0           batch_normalization_735[0][0]    
__________________________________________________________________________________________________
conv2d_739 (Conv2D)             (None, 6, 6, 192)    399360      block8_2_ac[0][0]                
__________________________________________________________________________________________________
conv2d_742 (Conv2D)             (None, 6, 6, 256)    172032      activation_675[0][0]             
__________________________________________________________________________________________________
batch_normalization_733 (BatchN (None, 6, 6, 192)    576         conv2d_739[0][0]                 
__________________________________________________________________________________________________
batch_normalization_736 (BatchN (None, 6, 6, 256)    768         conv2d_742[0][0]                 
__________________________________________________________________________________________________
activation_673 (Activation)     (None, 6, 6, 192)    0           batch_normalization_733[0][0]    
__________________________________________________________________________________________________
activation_676 (Activation)     (None, 6, 6, 256)    0           batch_normalization_736[0][0]    
__________________________________________________________________________________________________
block8_3_mixed (Concatenate)    (None, 6, 6, 448)    0           activation_673[0][0]             
                                                                 activation_676[0][0]             
__________________________________________________________________________________________________
block8_3_conv (Conv2D)          (None, 6, 6, 2080)   933920      block8_3_mixed[0][0]             
__________________________________________________________________________________________________
block8_3 (Lambda)               (None, 6, 6, 2080)   0           block8_2_ac[0][0]                
                                                                 block8_3_conv[0][0]              
__________________________________________________________________________________________________
block8_3_ac (Activation)        (None, 6, 6, 2080)   0           block8_3[0][0]                   
__________________________________________________________________________________________________
conv2d_744 (Conv2D)             (None, 6, 6, 192)    399360      block8_3_ac[0][0]                
__________________________________________________________________________________________________
batch_normalization_738 (BatchN (None, 6, 6, 192)    576         conv2d_744[0][0]                 
__________________________________________________________________________________________________
activation_678 (Activation)     (None, 6, 6, 192)    0           batch_normalization_738[0][0]    
__________________________________________________________________________________________________
conv2d_745 (Conv2D)             (None, 6, 6, 224)    129024      activation_678[0][0]             
__________________________________________________________________________________________________
batch_normalization_739 (BatchN (None, 6, 6, 224)    672         conv2d_745[0][0]                 
__________________________________________________________________________________________________
activation_679 (Activation)     (None, 6, 6, 224)    0           batch_normalization_739[0][0]    
__________________________________________________________________________________________________
conv2d_743 (Conv2D)             (None, 6, 6, 192)    399360      block8_3_ac[0][0]                
__________________________________________________________________________________________________
conv2d_746 (Conv2D)             (None, 6, 6, 256)    172032      activation_679[0][0]             
__________________________________________________________________________________________________
batch_normalization_737 (BatchN (None, 6, 6, 192)    576         conv2d_743[0][0]                 
__________________________________________________________________________________________________
batch_normalization_740 (BatchN (None, 6, 6, 256)    768         conv2d_746[0][0]                 
__________________________________________________________________________________________________
activation_677 (Activation)     (None, 6, 6, 192)    0           batch_normalization_737[0][0]    
__________________________________________________________________________________________________
activation_680 (Activation)     (None, 6, 6, 256)    0           batch_normalization_740[0][0]    
__________________________________________________________________________________________________
block8_4_mixed (Concatenate)    (None, 6, 6, 448)    0           activation_677[0][0]             
                                                                 activation_680[0][0]             
__________________________________________________________________________________________________
block8_4_conv (Conv2D)          (None, 6, 6, 2080)   933920      block8_4_mixed[0][0]             
__________________________________________________________________________________________________
block8_4 (Lambda)               (None, 6, 6, 2080)   0           block8_3_ac[0][0]                
                                                                 block8_4_conv[0][0]              
__________________________________________________________________________________________________
block8_4_ac (Activation)        (None, 6, 6, 2080)   0           block8_4[0][0]                   
__________________________________________________________________________________________________
conv2d_748 (Conv2D)             (None, 6, 6, 192)    399360      block8_4_ac[0][0]                
__________________________________________________________________________________________________
batch_normalization_742 (BatchN (None, 6, 6, 192)    576         conv2d_748[0][0]                 
__________________________________________________________________________________________________
activation_682 (Activation)     (None, 6, 6, 192)    0           batch_normalization_742[0][0]    
__________________________________________________________________________________________________
conv2d_749 (Conv2D)             (None, 6, 6, 224)    129024      activation_682[0][0]             
__________________________________________________________________________________________________
batch_normalization_743 (BatchN (None, 6, 6, 224)    672         conv2d_749[0][0]                 
__________________________________________________________________________________________________
activation_683 (Activation)     (None, 6, 6, 224)    0           batch_normalization_743[0][0]    
__________________________________________________________________________________________________
conv2d_747 (Conv2D)             (None, 6, 6, 192)    399360      block8_4_ac[0][0]                
__________________________________________________________________________________________________
conv2d_750 (Conv2D)             (None, 6, 6, 256)    172032      activation_683[0][0]             
__________________________________________________________________________________________________
batch_normalization_741 (BatchN (None, 6, 6, 192)    576         conv2d_747[0][0]                 
__________________________________________________________________________________________________
batch_normalization_744 (BatchN (None, 6, 6, 256)    768         conv2d_750[0][0]                 
__________________________________________________________________________________________________
activation_681 (Activation)     (None, 6, 6, 192)    0           batch_normalization_741[0][0]    
__________________________________________________________________________________________________
activation_684 (Activation)     (None, 6, 6, 256)    0           batch_normalization_744[0][0]    
__________________________________________________________________________________________________
block8_5_mixed (Concatenate)    (None, 6, 6, 448)    0           activation_681[0][0]             
                                                                 activation_684[0][0]             
__________________________________________________________________________________________________
block8_5_conv (Conv2D)          (None, 6, 6, 2080)   933920      block8_5_mixed[0][0]             
__________________________________________________________________________________________________
block8_5 (Lambda)               (None, 6, 6, 2080)   0           block8_4_ac[0][0]                
                                                                 block8_5_conv[0][0]              
__________________________________________________________________________________________________
block8_5_ac (Activation)        (None, 6, 6, 2080)   0           block8_5[0][0]                   
__________________________________________________________________________________________________
conv2d_752 (Conv2D)             (None, 6, 6, 192)    399360      block8_5_ac[0][0]                
__________________________________________________________________________________________________
batch_normalization_746 (BatchN (None, 6, 6, 192)    576         conv2d_752[0][0]                 
__________________________________________________________________________________________________
activation_686 (Activation)     (None, 6, 6, 192)    0           batch_normalization_746[0][0]    
__________________________________________________________________________________________________
conv2d_753 (Conv2D)             (None, 6, 6, 224)    129024      activation_686[0][0]             
__________________________________________________________________________________________________
batch_normalization_747 (BatchN (None, 6, 6, 224)    672         conv2d_753[0][0]                 
__________________________________________________________________________________________________
activation_687 (Activation)     (None, 6, 6, 224)    0           batch_normalization_747[0][0]    
__________________________________________________________________________________________________
conv2d_751 (Conv2D)             (None, 6, 6, 192)    399360      block8_5_ac[0][0]                
__________________________________________________________________________________________________
conv2d_754 (Conv2D)             (None, 6, 6, 256)    172032      activation_687[0][0]             
__________________________________________________________________________________________________
batch_normalization_745 (BatchN (None, 6, 6, 192)    576         conv2d_751[0][0]                 
__________________________________________________________________________________________________
batch_normalization_748 (BatchN (None, 6, 6, 256)    768         conv2d_754[0][0]                 
__________________________________________________________________________________________________
activation_685 (Activation)     (None, 6, 6, 192)    0           batch_normalization_745[0][0]    
__________________________________________________________________________________________________
activation_688 (Activation)     (None, 6, 6, 256)    0           batch_normalization_748[0][0]    
__________________________________________________________________________________________________
block8_6_mixed (Concatenate)    (None, 6, 6, 448)    0           activation_685[0][0]             
                                                                 activation_688[0][0]             
__________________________________________________________________________________________________
block8_6_conv (Conv2D)          (None, 6, 6, 2080)   933920      block8_6_mixed[0][0]             
__________________________________________________________________________________________________
block8_6 (Lambda)               (None, 6, 6, 2080)   0           block8_5_ac[0][0]                
                                                                 block8_6_conv[0][0]              
__________________________________________________________________________________________________
block8_6_ac (Activation)        (None, 6, 6, 2080)   0           block8_6[0][0]                   
__________________________________________________________________________________________________
conv2d_756 (Conv2D)             (None, 6, 6, 192)    399360      block8_6_ac[0][0]                
__________________________________________________________________________________________________
batch_normalization_750 (BatchN (None, 6, 6, 192)    576         conv2d_756[0][0]                 
__________________________________________________________________________________________________
activation_690 (Activation)     (None, 6, 6, 192)    0           batch_normalization_750[0][0]    
__________________________________________________________________________________________________
conv2d_757 (Conv2D)             (None, 6, 6, 224)    129024      activation_690[0][0]             
__________________________________________________________________________________________________
batch_normalization_751 (BatchN (None, 6, 6, 224)    672         conv2d_757[0][0]                 
__________________________________________________________________________________________________
activation_691 (Activation)     (None, 6, 6, 224)    0           batch_normalization_751[0][0]    
__________________________________________________________________________________________________
conv2d_755 (Conv2D)             (None, 6, 6, 192)    399360      block8_6_ac[0][0]                
__________________________________________________________________________________________________
conv2d_758 (Conv2D)             (None, 6, 6, 256)    172032      activation_691[0][0]             
__________________________________________________________________________________________________
batch_normalization_749 (BatchN (None, 6, 6, 192)    576         conv2d_755[0][0]                 
__________________________________________________________________________________________________
batch_normalization_752 (BatchN (None, 6, 6, 256)    768         conv2d_758[0][0]                 
__________________________________________________________________________________________________
activation_689 (Activation)     (None, 6, 6, 192)    0           batch_normalization_749[0][0]    
__________________________________________________________________________________________________
activation_692 (Activation)     (None, 6, 6, 256)    0           batch_normalization_752[0][0]    
__________________________________________________________________________________________________
block8_7_mixed (Concatenate)    (None, 6, 6, 448)    0           activation_689[0][0]             
                                                                 activation_692[0][0]             
__________________________________________________________________________________________________
block8_7_conv (Conv2D)          (None, 6, 6, 2080)   933920      block8_7_mixed[0][0]             
__________________________________________________________________________________________________
block8_7 (Lambda)               (None, 6, 6, 2080)   0           block8_6_ac[0][0]                
                                                                 block8_7_conv[0][0]              
__________________________________________________________________________________________________
block8_7_ac (Activation)        (None, 6, 6, 2080)   0           block8_7[0][0]                   
__________________________________________________________________________________________________
conv2d_760 (Conv2D)             (None, 6, 6, 192)    399360      block8_7_ac[0][0]                
__________________________________________________________________________________________________
batch_normalization_754 (BatchN (None, 6, 6, 192)    576         conv2d_760[0][0]                 
__________________________________________________________________________________________________
activation_694 (Activation)     (None, 6, 6, 192)    0           batch_normalization_754[0][0]    
__________________________________________________________________________________________________
conv2d_761 (Conv2D)             (None, 6, 6, 224)    129024      activation_694[0][0]             
__________________________________________________________________________________________________
batch_normalization_755 (BatchN (None, 6, 6, 224)    672         conv2d_761[0][0]                 
__________________________________________________________________________________________________
activation_695 (Activation)     (None, 6, 6, 224)    0           batch_normalization_755[0][0]    
__________________________________________________________________________________________________
conv2d_759 (Conv2D)             (None, 6, 6, 192)    399360      block8_7_ac[0][0]                
__________________________________________________________________________________________________
conv2d_762 (Conv2D)             (None, 6, 6, 256)    172032      activation_695[0][0]             
__________________________________________________________________________________________________
batch_normalization_753 (BatchN (None, 6, 6, 192)    576         conv2d_759[0][0]                 
__________________________________________________________________________________________________
batch_normalization_756 (BatchN (None, 6, 6, 256)    768         conv2d_762[0][0]                 
__________________________________________________________________________________________________
activation_693 (Activation)     (None, 6, 6, 192)    0           batch_normalization_753[0][0]    
__________________________________________________________________________________________________
activation_696 (Activation)     (None, 6, 6, 256)    0           batch_normalization_756[0][0]    
__________________________________________________________________________________________________
block8_8_mixed (Concatenate)    (None, 6, 6, 448)    0           activation_693[0][0]             
                                                                 activation_696[0][0]             
__________________________________________________________________________________________________
block8_8_conv (Conv2D)          (None, 6, 6, 2080)   933920      block8_8_mixed[0][0]             
__________________________________________________________________________________________________
block8_8 (Lambda)               (None, 6, 6, 2080)   0           block8_7_ac[0][0]                
                                                                 block8_8_conv[0][0]              
__________________________________________________________________________________________________
block8_8_ac (Activation)        (None, 6, 6, 2080)   0           block8_8[0][0]                   
__________________________________________________________________________________________________
conv2d_764 (Conv2D)             (None, 6, 6, 192)    399360      block8_8_ac[0][0]                
__________________________________________________________________________________________________
batch_normalization_758 (BatchN (None, 6, 6, 192)    576         conv2d_764[0][0]                 
__________________________________________________________________________________________________
activation_698 (Activation)     (None, 6, 6, 192)    0           batch_normalization_758[0][0]    
__________________________________________________________________________________________________
conv2d_765 (Conv2D)             (None, 6, 6, 224)    129024      activation_698[0][0]             
__________________________________________________________________________________________________
batch_normalization_759 (BatchN (None, 6, 6, 224)    672         conv2d_765[0][0]                 
__________________________________________________________________________________________________
activation_699 (Activation)     (None, 6, 6, 224)    0           batch_normalization_759[0][0]    
__________________________________________________________________________________________________
conv2d_763 (Conv2D)             (None, 6, 6, 192)    399360      block8_8_ac[0][0]                
__________________________________________________________________________________________________
conv2d_766 (Conv2D)             (None, 6, 6, 256)    172032      activation_699[0][0]             
__________________________________________________________________________________________________
batch_normalization_757 (BatchN (None, 6, 6, 192)    576         conv2d_763[0][0]                 
__________________________________________________________________________________________________
batch_normalization_760 (BatchN (None, 6, 6, 256)    768         conv2d_766[0][0]                 
__________________________________________________________________________________________________
activation_697 (Activation)     (None, 6, 6, 192)    0           batch_normalization_757[0][0]    
__________________________________________________________________________________________________
activation_700 (Activation)     (None, 6, 6, 256)    0           batch_normalization_760[0][0]    
__________________________________________________________________________________________________
block8_9_mixed (Concatenate)    (None, 6, 6, 448)    0           activation_697[0][0]             
                                                                 activation_700[0][0]             
__________________________________________________________________________________________________
block8_9_conv (Conv2D)          (None, 6, 6, 2080)   933920      block8_9_mixed[0][0]             
__________________________________________________________________________________________________
block8_9 (Lambda)               (None, 6, 6, 2080)   0           block8_8_ac[0][0]                
                                                                 block8_9_conv[0][0]              
__________________________________________________________________________________________________
block8_9_ac (Activation)        (None, 6, 6, 2080)   0           block8_9[0][0]                   
__________________________________________________________________________________________________
conv2d_768 (Conv2D)             (None, 6, 6, 192)    399360      block8_9_ac[0][0]                
__________________________________________________________________________________________________
batch_normalization_762 (BatchN (None, 6, 6, 192)    576         conv2d_768[0][0]                 
__________________________________________________________________________________________________
activation_702 (Activation)     (None, 6, 6, 192)    0           batch_normalization_762[0][0]    
__________________________________________________________________________________________________
conv2d_769 (Conv2D)             (None, 6, 6, 224)    129024      activation_702[0][0]             
__________________________________________________________________________________________________
batch_normalization_763 (BatchN (None, 6, 6, 224)    672         conv2d_769[0][0]                 
__________________________________________________________________________________________________
activation_703 (Activation)     (None, 6, 6, 224)    0           batch_normalization_763[0][0]    
__________________________________________________________________________________________________
conv2d_767 (Conv2D)             (None, 6, 6, 192)    399360      block8_9_ac[0][0]                
__________________________________________________________________________________________________
conv2d_770 (Conv2D)             (None, 6, 6, 256)    172032      activation_703[0][0]             
__________________________________________________________________________________________________
batch_normalization_761 (BatchN (None, 6, 6, 192)    576         conv2d_767[0][0]                 
__________________________________________________________________________________________________
batch_normalization_764 (BatchN (None, 6, 6, 256)    768         conv2d_770[0][0]                 
__________________________________________________________________________________________________
activation_701 (Activation)     (None, 6, 6, 192)    0           batch_normalization_761[0][0]    
__________________________________________________________________________________________________
activation_704 (Activation)     (None, 6, 6, 256)    0           batch_normalization_764[0][0]    
__________________________________________________________________________________________________
block8_10_mixed (Concatenate)   (None, 6, 6, 448)    0           activation_701[0][0]             
                                                                 activation_704[0][0]             
__________________________________________________________________________________________________
block8_10_conv (Conv2D)         (None, 6, 6, 2080)   933920      block8_10_mixed[0][0]            
__________________________________________________________________________________________________
block8_10 (Lambda)              (None, 6, 6, 2080)   0           block8_9_ac[0][0]                
                                                                 block8_10_conv[0][0]             
__________________________________________________________________________________________________
conv_7b (Conv2D)                (None, 6, 6, 1536)   3194880     block8_10[0][0]                  
__________________________________________________________________________________________________
conv_7b_bn (BatchNormalization) (None, 6, 6, 1536)   4608        conv_7b[0][0]                    
__________________________________________________________________________________________________
conv_7b_ac (Activation)         (None, 6, 6, 1536)   0           conv_7b_bn[0][0]                 
__________________________________________________________________________________________________
average_pooling2d_15 (AveragePo (None, 3, 3, 1536)   0           conv_7b_ac[0][0]                 
__________________________________________________________________________________________________
flatten (Flatten)               (None, 13824)        0           average_pooling2d_15[0][0]       
__________________________________________________________________________________________________
dense_60 (Dense)                (None, 1024)         14156800    flatten[0][0]                    
__________________________________________________________________________________________________
dropout_48 (Dropout)            (None, 1024)         0           dense_60[0][0]                   
__________________________________________________________________________________________________
dense_61 (Dense)                (None, 1024)         1049600     dropout_48[0][0]                 
__________________________________________________________________________________________________
dropout_49 (Dropout)            (None, 1024)         0           dense_61[0][0]                   
__________________________________________________________________________________________________
dense_62 (Dense)                (None, 1024)         1049600     dropout_49[0][0]                 
__________________________________________________________________________________________________
dropout_50 (Dropout)            (None, 1024)         0           dense_62[0][0]                   
__________________________________________________________________________________________________
dense_63 (Dense)                (None, 256)          262400      dropout_50[0][0]                 
__________________________________________________________________________________________________
dropout_51 (Dropout)            (None, 256)          0           dense_63[0][0]                   
__________________________________________________________________________________________________
dense_64 (Dense)                (None, 2)            514         dropout_51[0][0]                 
==================================================================================================
Total params: 70,855,650
Trainable params: 70,795,106
Non-trainable params: 60,544
__________________________________________________________________________________________________